mann.pth (torch, 4487 bytes, 8 tensors)

controller.controller_net.weight f4 [5, 22]
000000 a4 bf bb bd ec ff cb 3d b4 03 6c be c1 62 35 be
       -0.09167412 0.099609226 -0.23048288 -0.17713453
000010 f4 81 04 be ff 90 05 bc d1 fd 3f be 85 6d dc 3d
       -0.12940198 -0.008152246 -0.18749167 0.10763077
000020 8f d8 2f bd 50 b4 f6 3c f8 b7 7d bd e1 93 19 be
       -0.042931136 0.030115277 -0.061943024 -0.14997818
000030 66 16 1e 3d 86 a4 01 3e 1c b6 14 3d 83 60 b6 3c
       0.03859558 0.12660417 0.036306486 0.022262817
000040 2a f2 0c be 3e 09 b6 3d a1 09 8c be 3e c2 8e 3d
       -0.13764253 0.088884816 -0.27351096 0.069706425
000050 1c 88 bc 3d 88 23 d3 3d 01 8e 7d 3d 3a 9e 64 bd
       0.09205648 0.103095114 0.061903004 -0.05581496
000060 f7 10 3e bd 77 ce 40 be 9c 9d 71 bd f8 31 39 be
       -0.046402898 -0.1882876 -0.0589882 -0.18085468
000070 fa d8 c2 bd 5f 03 a3 bc 7e b2 a5 bd 5a 2a 3d 3e
       -0.09514041 -0.019899068 -0.08090685 0.18473187
000080 0b 9c 8c bd ad 72 02 3c 69 63 af 3d 3e 3a e2 bd
       -0.068657 0.007961911 0.08563883 -0.11046265
000090 a7 a7 97 3c 78 6b 86 bd 4a 19 c9 bc 0d 5b 19 be
       0.01851256 -0.06563467 -0.024548192 -0.1497614
0000a0 bb 6e 60 bd 20 72 a1 3b 35 a2 d5 bd 7f df 06 be
       -0.0547931 0.004926935 -0.10431329 -0.13171194
0000b0 ad 14 3e 3e 72 35 e3 3c e9 d5 cc 3d 68 5f f7 3d
       0.18562575 0.027735446 0.100017376 0.12078744
0000c0 71 83 00 3e a1 6c 50 bd bd 83 3a 3e 5f fb 17 be
       0.12550141 -0.050884847 0.18214317 -0.14841984
0000d0 e2 d0 1f be 60 0e b1 3d 98 03 62 bd 21 1c 7f 3c
       -0.15607026 0.0864532 -0.05517921 0.015570671
0000e0 70 da 03 be c5 2b 35 3d e6 b7 a5 3d e1 a4 04 be
       -0.12876296 0.044231195 0.080917165 -0.12953521
0000f0 04 0c 96 bd 72 62 94 bc cb 5d a7 bd 89 83 08 3d
       -0.073265105 -0.018113349 -0.081721865 0.033328567
000100 0e b3 c0 3c ae 20 c9 3d 5a bc 0b 3d c3 2c 27 be
       0.02352288 0.09820686 0.034115173 -0.16325669
000110 37 ef 0e be cc db c1 3c f4 0c 71 3d 0e 91 0f 3e
       -0.1395844 0.023664378 0.058850244 0.14020178
000120 08 27 41 3e 20 0d ce bd 4f 05 11 3e 97 53 6a 3d
       0.18862545 -0.10061097 0.14162181 0.057208624
000130 b2 cd 8b bd 89 b1 30 3d 30 d5 c3 bc 07 4d 5c 3d
       -0.06826343 0.04313806 -0.023905367 0.053784396
000140 d7 41 a8 3d 0e 8d 2e be 68 76 19 bc a4 de 2f be
       0.08215683 -0.17045996 -0.009366609 -0.17174774
000150 d6 01 98 bd b3 1d c0 bd 88 cc 67 3d b0 a5 f7 3d
       -0.07422225 -0.09380665 0.05659154 0.12092149
000160 cb 2a cc 3d 50 a5 6f 3d 30 1c 58 3e 7e 16 9a 3d
       0.099690996 0.058507264 0.21104503 0.07523821
000170 55 41 8b 3c 88 01 c2 bd bc 75 9d bb 5c 8f a7 3d
       0.016998926 -0.09472948 -0.004805295 0.081816405
000180 6f 93 f4 bd 94 67 5b 3e fc 8a 04 3e 81 4b d9 bd
       -0.11942183 0.2142623 0.12943643 -0.10610104
000190 f2 48 d1 bd 08 31 a6 3d bb 62 48 3e 4a 73 c0 3d
       -0.10218991 0.08114821 0.19568913 0.0939699
0001a0 c4 dd 89 3e 40 bb 44 3e bb a6 2a 3e 2c e0 36 bd
       0.26927006 0.19212055 0.16665165 -0.04464738
0001b0 48 42 bd 3d 57 34 05 3c
       0.09241158 0.008130155

controller.controller_net.bias f4 [5]
000000 06 5c 5e 3d 96 bb 24 3e 83 0d 04 be 5c e3 e2 3a
       0.05428698 0.16087183 -0.1289578 0.001731019
000010 21 9c c5 bc
       -0.0241223

controller.out_net.weight f4 [1, 20]
000000 ef ef 3d be 47 27 53 bd cc 1e 27 bc 1f 9b 3d 3a
       -0.18548559 -0.05155113 -0.010200214 0.00072328927
000010 f5 9b 40 3e 4f 8f 2f 3e 1d 69 5d be 8d 7c 41 3d
       0.18809493 0.17144512 -0.21622129 0.04723792
000020 0e 80 4e be bd 2c 80 3e 9d cd 58 be 7d 7d 93 3c
       -0.20166036 0.25034133 -0.21172185 0.018004173
000030 e3 a3 1d 3e 47 82 f0 bd cb 80 b1 bb 70 3e c7 3c
       0.15394549 -0.117435984 -0.0054169646 0.024321765
000040 65 82 e0 bd 21 58 72 bd e6 a3 2a be f4 41 df bd
       -0.10962371 -0.059166078 -0.16664085 -0.109012514

controller.gate_net.weight f4 [1, 5]
000000 d8 6d a2 3e 48 95 11 3e b8 64 17 bd f0 2c da 3c
       0.3172443 0.14217103 -0.036961287 0.026632756
000010 58 19 04 bd
       -0.032250732

head.read_net.weight f4 [15, 5]
000000 ce 1e 9c bc 49 07 a5 3e bf 7a ad be 51 2b e9 3d
       -0.019057658 0.3223212 -0.3388271 0.11385215
000010 36 a3 72 be c2 35 a7 3d b8 6a b0 bc 83 df 6a 3d
       -0.23695073 0.0816455 -0.021535262 0.057342064
000020 3b ca 2e 3e 5a 63 b4 be 0d a3 0c be 7e c6 24 be
       0.17069332 -0.3523205 -0.13734074 -0.16091344
000030 0d 36 01 be c3 ac a6 be c2 63 af 3e 45 54 17 3d
       -0.12618275 -0.32553682 0.34255797 0.0369456
000040 78 98 31 3d 0b 09 3e 3e dc 4c a6 bb d3 29 b3 bd
       0.043358296 0.18558137 -0.0050750803 -0.08748212
000050 6a 6a a7 be 21 3c 90 3e 35 4f a0 be d7 fa 9f be
       -0.32698375 0.28170875 -0.3131043 -0.31246063
000060 6a d0 ba be 15 1e 5b be e7 b5 1e be b3 46 78 3e
       -0.36487132 -0.21398194 -0.15499078 0.2424572
000070 68 d2 25 be a9 03 04 bc 4c 35 9f 3e de b4 44 3e
       -0.16193545 -0.008057513 0.3109535 0.1920962
000080 47 aa a2 be d3 d0 94 3d 00 31 62 be 7f 30 06 bd
       -0.31770536 0.072663926 -0.22089005 -0.032761093
000090 6c 9e 76 3d a3 ca 23 3e 63 3c 5f be 76 77 ca 3d
       0.060209677 0.15995269 -0.2180038 0.098860666
0000a0 f2 99 f4 3e 16 4f 9a 3e 75 64 b4 bd 2c 80 8f be
       0.477737 0.30138463 -0.08808223 -0.28027475
0000b0 2a 0b a6 3d ed f2 0e bf 28 d8 e8 ba a6 c9 26 3b
       0.08107598 -0.55839425 -0.0017764615 0.0025449782
0000c0 bc 62 4c 3d c5 f5 e0 3e 89 55 29 3e 95 18 f4 3d
       0.049898848 0.43937507 0.16536535 0.11918751
0000d0 0d 2d 97 bc 01 67 19 bd c5 27 e3 be 30 76 16 bd
       -0.0184541 -0.037451748 -0.4436628 -0.036733806
0000e0 ae 12 3b 3e 70 ef 92 bd 62 22 cb 3e ea fd 90 3e
       0.18268844 -0.07174575 0.3967467 0.2831872
0000f0 c9 0d 05 3f 81 0e 38 be b7 d5 f6 be d3 55 87 3e
       0.5197416 -0.17974283 -0.48209926 0.26432666
000100 2b 86 b0 be 46 c5 e0 be a3 b0 ef bd 44 00 89 3e
       -0.34477362 -0.43900508 -0.11703613 0.26758015
000110 e5 ec aa 3d 97 03 44 3e 69 b2 97 be 44 5a 08 bf
       0.08345965 0.19141994 -0.29628304 -0.53262734
000120 e9 8c 43 be 38 22 b0 be 55 10 a1 3e
       -0.19096722 -0.34401107 0.31457773

head.read_net.bias f4 [15]
000000 54 90 03 3f f5 cf 49 be b5 a9 65 3e 8a b5 45 be
       0.513921 -0.19708236 0.2242802 -0.19307533
000010 7f 24 a3 bd 83 5a 4b be c5 25 d2 3e da 95 aa 3e
       -0.079659455 -0.19858746 0.4104444 0.33317453
000020 45 2e eb 3e 43 d3 8b 3e ba fc ac 3e 5e e4 b1 3e
       0.45933738 0.27309617 0.33786565 0.34744543
000030 81 aa b9 bc aa b0 b7 be d2 f9 81 3d
       -0.02266431 -0.3587697 0.063464776

head.write_net.weight f4 [15, 5]
000000 a0 ab a1 be 40 60 19 3e 66 cc a0 be 80 e1 1c 3d
       -0.31576252 0.14978123 -0.31405944 0.03830099
000010 b2 8a e4 be d4 30 cf 3e 3e c9 87 be 9f c5 cc be
       -0.44637066 0.4046694 -0.26520723 -0.39994523
000020 60 dd df be 54 b2 be 3e 78 ac 2f bd b2 31 27 be
       -0.43723583 0.3724543 -0.04288909 -0.16327551
000030 92 f1 bf 3e 24 d1 75 3e 4b 4d 87 be a8 bc cc bd
       0.3748899 0.24005562 -0.26426157 -0.09996921
000040 68 85 2e 3d 7d 80 8c be 9c e6 15 3e 68 48 cc 3d
       0.042607695 -0.2744178 0.14638752 0.09974748
000050 cc 23 b0 3e e8 54 06 3e 00 6b 8b ba 8b 55 ca be
       0.3440231 0.13118327 -0.0010636747 -0.3951839
000060 c0 b4 3e 3e 84 c9 90 3e 84 ee 63 be c8 4c d8 3d
       0.18623638 0.28278744 -0.22258955 0.1056152
000070 41 c4 5b be 2d 7f b0 be 10 d2 ec bc b8 ac bd bd
       -0.21461584 -0.34472027 -0.02890876 -0.09261459
000080 40 69 ab 3d fc cc 0f 3e de d0 9d 3e 8c ac 96 3e
       0.08369684 0.14043039 0.30823416 0.29428518
000090 7a da 8e be 20 19 46 3c c2 4e bb be 48 d8 2e 3d
       -0.2790106 0.012090951 -0.36583525 0.04268673
0000a0 5c 0f 83 3e b8 b6 a4 3d f4 51 c4 bd 20 02 61 bd
       0.25597656 0.08042663 -0.09585944 -0.054933667
0000b0 2e 55 87 3e b8 0f fd bd 78 52 98 3e 98 2b 7d 3e
       0.26432174 -0.12356514 0.2975042 0.24723661
0000c0 27 de 5e be 4c 9d 89 be 58 81 0e 3e e2 18 b0 be
       -0.21764432 -0.2687782 0.13916528 -0.34393984
0000d0 18 13 92 3d 0a d5 ba be a8 c0 cd 3e c8 27 d7 bd
       0.07132548 -0.3649066 0.40186048 -0.105056345
0000e0 ef 27 a0 be 28 71 11 3e cb 51 c4 be 00 74 0d 3d
       -0.31280467 0.14203322 -0.38343653 0.034534454
0000f0 1b d2 7c be 07 2b ab be e0 4a f4 3d 6c 18 0e be
       -0.24689524 -0.33431265 0.11928344 -0.13876504
000100 78 a6 21 3d dc 2a da 3e f8 06 17 be 4e f8 83 be
       0.039465398 0.42610824 -0.14748752 -0.2577538
000110 00 a4 b2 39 48 7f 37 3e d4 85 6f 3e 54 81 24 3e
       0.00034072995 0.17919648 0.23390895 0.1606496
000120 00 63 1d 3e 0d 89 db be d8 c3 d6 3d
       0.15369797 -0.42878 0.10486573

head.write_net.bias f4 [15]
000000 d6 53 d7 3e a8 9e 40 3d 08 8e ce bd 18 b8 31 3e
       0.4205615 0.047026306 -0.10085684 0.17355382
000010 00 ea f7 3c b0 f3 9d 3e 67 21 65 be 48 5a 18 3d
       0.030262947 0.3084998 -0.22376023 0.037195474
000020 10 ea dc bc 15 16 d6 be 9c 61 cb 3e 0e b1 55 be
       -0.026967078 -0.41813722 0.39722908 -0.20868322
000030 3c 91 7e 3e e8 46 00 be 36 7e 2f be
       0.2486009 -0.12527049 -0.1713799
