mann.pth (torch, 11527 bytes, 8 tensors)

controller.controller_net.weight f4 [5, 22]
0.17259158 -0.18665402 -0.21512285 0.0279447 -0.061894074 -0.10264043 0.06557916 0.1349933
-0.019212518 -0.05837657 -0.019406974 -0.083575256 0.10291998 0.06674412 0.07782757 0.14420664
-0.19937441 0.05656084 0.16733333 0.22879595 -0.0989736 -0.24588323 0.07839126 -0.07670099
0.08413513 0.10664509 -0.08413419 0.073789135 -0.10074764 -0.04549895 0.14832452 0.06792404
-0.21362734 0.117105596 -0.06667871 0.17382686 -0.16740471 0.007307861 0.12240658 -0.096837446
0.10003791 -0.036179498 0.19429721 -0.14782025 0.08994799 -0.020974264 0.13662526 0.08029116
-0.034168214 -0.16083452 -0.088785686 -0.012728165 0.14908731 0.06317567 -0.1397705 0.003179504
-0.08561742 -0.096537575 -0.05532853 0.055384513 -0.097849816 0.15320405 -0.26826942 0.105590135
0.04111006 0.12903014 -0.06758138 -0.09380544 -0.009787721 0.09147194 0.18055867 -0.042397767
0.033357646 0.06071791 0.031903807 0.049464613 -0.13554424 -0.14149673 0.032190025 0.107803755
-0.08966448 -0.08728869 -0.03661442 -0.1505534 -0.103256784 -0.12605447 0.25063586 -0.07936806
-0.14031613 0.02756158 -0.083125085 0.08846842 -0.10817079 -0.12383121 0.08942316 0.06325094
0.010903227 -0.06925562 0.194003 0.063095145 0.1223752 -0.12707579 -0.10935717 -0.10834941
-0.12532403 0.14652993 -0.1500158 0.041768216 0.2101412 -0.1489326
00000000: d9bb 303e 3b22 3fbe 2a49 5cbe 49ec e43c
00000010: a484 7dbd 2535 d2bd 5e4e 863d af3b 0a3e
00000020: 9263 9dbc 451c 6fbd 60fb 9ebc 8129 abbd
00000030: b6c7 d23d 24b1 883d 1064 9f3d e8aa 133e
00000040: ce28 4cbe 57ac 673d 6e59 2b3e 7c49 6a3e
00000050: acb2 cabd d0c8 7bbe 998b a03d 6915 9dbd
00000060: 0a4f ac3d be68 da3d 8c4e acbd c21e 973d
00000070: c754 cebd 1b5d 3abd 62e2 173e c21b 8b3d
00000080: 20c1 5abe 0fd5 ef3d d98e 88bd abff 313e
00000090: 246c 2bbe c876 ef3b 4db0 fa3d b652 c6bd
000000a0: ade0 cc3d f430 14bd d9f5 463e 315e 17be
000000b0: a736 b83d 38d2 abbc 7ee7 0b3e b16f a43d
000000c0: f8f3 0bbd ceb1 24be 45d5 b5bd cb89 50bc
000000d0: 58aa 183e 3f62 813d ff1f 0fbe 3a5f 503b
000000e0: 3058 afbd 7eb5 c5bd 2ba0 62bd dfda 623d
000000f0: 7c65 c8bd 86e1 1c3e 9c5a 89be a43f d83d
00000100: 0663 283d 7a20 043e 1b68 8abd 111d c0bd
00000110: ad5c 20bc a455 bb3d 5fe4 383e 48a9 2dbd
00000120: 07a2 083d 58b3 783d 91ad 023d 689b 4a3d
00000130: 1ccc 0abe 85e4 10be b0d9 033d 37c8 dc3d
00000140: 03a2 b7bd 6ac4 b2bd 01f9 15bd ac2a 1abe
00000150: 4b78 d3bd 6c14 01be 5853 803e b98b a2bd
00000160: 08af 0fbe d3c8 e13c 7c3d aabd ee2e b53d
00000170: a688 ddbd 389b fdbd 7d23 b73d b589 813d
00000180: 73a3 323c e4d5 8dbd b9a8 463e 0738 813d
00000190: d99f fa3d 2820 02be a7f6 dfbd 4ce6 ddbd
000001a0: f154 00be f10b 163e be9d 19be 2615 2b3d
000001b0: 412f 573e ca81 18be

controller.controller_net.bias f4 [5]
0.006051684 -0.068453 0.03556278 0.24870841 0.12740825
00000000: 344d c63b 1631 8cbd 47aa 113d 6bad 7e3e
00000010: 4f77 023e

controller.out_net.weight f4 [1, 155]
0.26048782 -0.000108515436 -0.040277228 -0.0040273736 -0.0090519795 0.039956573 -0.0396583 0.018811049
0.034557763 -0.05880592 -0.046756264 0.014019213 0.046411436 0.047409263 0.0063492665 0.06811258
0.06503776 -0.040523347 -0.006350082 0.0372269 -0.029081326 0.043681197 0.06896524 -0.019714367
0.075058185 0.00044416572 -0.028511362 0.057212155 -0.00981487 0.043783214 0.06266118 0.06218063
-0.037232827 0.023191046 -0.044963814 -0.012736517 -0.016717872 0.046043824 -0.069513544 -0.049851958
0.065009795 0.080935284 -0.025999486 0.06964648 0.0058320067 -0.076165244 -0.0022519266 -0.05809314
0.06270284 0.07031886 0.039930023 0.07643738 -0.07572854 -0.02362314 0.044498313 0.03345337
0.028040484 -0.05012127 -0.050619997 -0.00068970904 -0.053774476 -0.021779684 -0.06970567 -0.009993306
0.05792151 -0.027901886 -0.0028902898 -0.02419327 -0.07284225 0.03149262 -0.05595816 0.069996774
0.0061511323 -0.016388334 -0.002057878 0.050625276 -0.009588847 -0.020654915 0.0016171575 -0.061053984
0.07593797 0.07752579 -0.04874393 -0.0546596 0.060656153 -0.070830956 0.0061616944 0.025988922
-0.05471012 0.0058994433 0.06262745 0.072973564 -0.018879008 0.0212561 0.06583865 0.062529266
0.010016835 -0.049986534 -0.056238696 -0.041385278 -0.014142104 -0.051375896 0.0241129 -0.07546046
-0.00486905 -0.0033117656 0.015322243 0.03624759 0.07920282 -0.050159357 0.045236744 0.036648057
0.047793243 0.08101282 -0.014323716 -0.02189918 -0.042285062 -0.074144885 -0.06850121 0.04849894
-0.067716256 -0.033757824 0.056893837 -0.041740537 0.035279755 -0.04447875 0.043494225 -0.019642249
0.049929645 0.004502626 0.06279096 -0.035924014 -0.071756825 -0.07526076 -0.07933467 -0.016669469
0.0067970753 0.042854045 -0.027091557 -0.07389021 -0.00044775067 -0.02564788 -0.030669134 -0.004253416
-0.045298297 -0.04377331 6.980661e-05 0.027423771 -0.069242954 -0.064646386 0.050902583 -0.011849441
0.0015658005 -0.015170313 0.050603427
00000000: a95e 853e c892 e3b8 bcf9 24bd 0ff8 83bb
00000010: c14e 14bc 81a9 233d be70 22bd a119 9a3c
00000020: 718c 0d3d 7ade 70bd 7f83 3fbd d7b0 653c
00000030: eb19 3e3d 3730 423d 820d d03b 9c7e 8b3d
00000040: 8432 853d cffb 25bd 5914 d0bb 3c7b 183d
00000050: f63b eebc 0eeb 323d a63d 8d3d 0680 a1bc
00000060: 1bb8 993d eade e839 a990 e9bc 4b57 6a3d
00000070: 8cce 20bc 0756 333d 8154 803d 1eb1 7e3d
00000080: 7381 18bd 26fb bd3c fa2b 38bd d3ac 50bc
00000090: ebf3 88bc 7398 3c3d 1e5d 8ebd 9131 4cbd
000000a0: db23 853d 66c1 a53d e0fc d4bc d0a2 8e3d
000000b0: 6b1a bf3b 86fc 9bbd 0f95 13bb 13f3 6dbd
000000c0: 596a 803d 5603 903d aa8d 233d 338b 9c3d
000000d0: 9117 9bbd 5185 c1bc dd43 363d 6706 093d
000000e0: 28b5 e53c f64b 4dbd ea56 4fbd 97cd 34ba
000000f0: a042 5cbd 4f6b b2bc d9c1 8ebd f7ba 23bc
00000100: 1b3f 6d3d 7f92 e4bc 046b 3dbb f730 c6bc
00000110: 512e 95bd 68fe 003d 6234 65bd 785a 8f3d
00000120: 708f c93b d440 86bc 77dd 06bb 735c 4f3d
00000130: 8a1a 1dbc 7f34 a9bc cdf6 d33a be13 7abd
00000140: 5e85 9b3d d7c5 9e3d b7a7 47bd bfe2 5fbd
00000150: 9672 783d d20f 91bd 0ae8 c93b b8e6 d43c
00000160: b817 60bd 1e50 c13b d242 803d 2a73 953d
00000170: 26a8 9abc 4621 ae3c 6ad6 863d 580f 803d
00000180: a71d 243c aebe 4cbd 8c5a 66bd 9c83 29bd
00000190: 49b4 67bc 886f 52bd 6b88 c53c 038b 9abd
000001a0: 8d8c 9fbb 350a 59bb 250a 7b3c 5a78 143d
000001b0: 1735 a23d e673 4dbd 2a4a 393d 461c 163d
000001c0: d9c2 433d 0dea a53d 05ae 6abc e965 b3bc
000001d0: 1a33 2dbd 46d9 97bd 5d4a 8cbd d3a6 463d
000001e0: d2ae 8abd a545 0abd 8309 693d 20f8 2abd
000001f0: 8181 103d 5a2f 36bd 0027 323d c8e8 a0bc
00000200: 0783 4c3d c48a 933b 8c98 803d 0f25 13bd
00000210: 3ef5 92bd 5022 9abd 377a a2bd 698e 88bc
00000220: 00ba de3b b987 2f3d 1def ddbc c053 97bd
00000230: 14c0 eab9 811b d2bc d63d fbbc 3d60 8bbb
00000240: b58a 39bd a44b 33bd 2365 9238 d1a7 e03c
00000250: 40cf 8dbd 5365 84bd 3a7f 503d 2824 42bc
00000260: 8c3b cd3a e88c 78bc 8a45 4f3d

controller.gate_net.weight f4 [1, 5]
0.39036274 -0.044454813 -0.12506619 -0.4338824 -0.33526167
00000000: a0dd c73e 4016 36bd 5a11 00be d525 debe
00000010: 6ba7 abbe

head.read_net.weight f4 [150, 5]
0.0090710195 0.07551732 0.08115381 0.32519057 0.0012101962 0.055122897 0.050177895 0.14217605
-0.19967134 0.27791917 0.19296703 -0.09234537 -0.22726189 0.1203575 -0.03809121 0.23715577
0.014345217 0.106440805 0.19164905 -0.1004612 0.10722864 -0.21877609 0.32646322 0.018809523
-0.035346247 -0.19231081 -0.017159754 0.02670881 0.2585346 0.18773933 0.22356121 -0.09877277
0.26279786 0.45910582 0.3324188 0.2801787 -0.06643057 0.30642867 0.39574745 0.15174559
0.38034257 0.17199096 0.14304821 0.14674835 0.2663448 0.13420214 0.15379952 0.3772333
0.20512576 0.08767913 0.08044915 -0.23025815 0.27652705 -0.08218215 -0.2426926 0.09024578
-0.14444193 0.18947116 -0.06664021 -0.0075520375 -0.052663337 0.053471375 0.2409911 0.20193508
0.36492482 -0.11123501 -0.30570054 0.1458682 0.37244454 0.50242174 -0.119401895 -0.0051388317
0.055254005 -0.014926068 0.3420087 0.088670686 -0.11265281 0.12252154 0.24735011 0.08518467
-0.1534227 -0.24041107 -0.03411449 0.22765754 -0.23267157 0.48510465 0.1726242 0.120441996
0.46636733 0.3811268 -0.10946377 0.09806794 0.13666001 0.31846264 0.15816167 -0.13513523
0.1565058 -0.12739165 0.28339466 0.3421248 -0.067854755 0.049154058 0.2807258 0.15853241
0.19761607 0.09946601 0.18588653 0.18312854 -0.2442896 0.06653256 -0.063531786 0.1082906
0.063931994 -0.02921789 0.19396493 0.06117655 -0.15501517 0.3958197 0.5188927 -0.020756945
0.44699445 0.12115271 0.026863711 0.30954847 0.3528197 0.06845083 -0.18500347 -0.0059197103
0.07082783 0.06098884 0.2915054 -0.0489031 0.2912143 -0.15508284 0.07412453 0.1455883
-0.19547519 0.34908953 0.26009375 0.17067154 0.0470995 0.07852256 0.14393122 0.3852019
0.0486782 -0.21121885 -0.26257238 0.2898173 -0.20625044 0.29519036 0.60388345 0.032160807
0.31383285 0.1729816 0.41584325 -0.03401423 -0.21421091 0.44876623 0.056020882 -0.057084072
-0.12454661 -0.05346955 0.111486085 0.1848996 0.049972028 -0.47214878 -0.004441759 -0.15560272
-0.08722042 -0.13262287 -0.18558496 -0.45153785 -0.04126468 -0.111178525 -0.079067126 -0.0040487265
-0.109907895 0.00039363225 -0.07785934 0.33717775 0.023095435 0.30196276 -0.07277771 0.20004864
0.3202118 0.059828337 0.02843053 0.15958768 0.19360289 0.14940012 0.30949366 0.17126094
0.09738153 0.13844529 0.20827015 0.05022137 0.02631294 0.25253296 -0.033501983 0.4577861
0.26876885 -0.010363408 0.38888633 0.035069793 0.45142615 0.102738604 0.13047309 0.24980377
-0.04582828 -0.1887886 0.14318648 0.17249924 0.37126002 0.5539095 0.3497353 -0.096580856
-0.0022515086 0.0335119 0.101002134 0.27455232 0.14800853 0.039230764 0.045321908 0.18807855
0.382869 0.12507114 -0.29692453 0.13510683 -0.25787917 -0.120581314 0.003782282 0.16964799
0.07727189 0.033579245 0.2642741 -0.13587512 0.08431999 0.2075657 0.07719447 0.17109844
-0.0048717065 -0.021317422 0.24209099 0.46119264 0.098807395 -0.06650209 0.044827804 0.05907863
0.20929773 0.04793045 -0.3334581 -0.27147874 0.0007379969 0.017090712 -0.22834726 -0.19139817
00000000: 9d9e 143c d3a8 9a3d f833 a63d 617f a63e
00000010: 729f 9e3a 8cc8 613d 5687 4d3d 9996 113e
00000020: a576 4cbe 6c4b 8e3e 2699 453e 921f bdbd
00000030: 57b7 68be fe7d f63d 8705 1cbd f6d8 723e
00000040: 3308 6b3c a3fd d93d a63f 443e 9abe cdbd
00000050: b09a db3d d706 60be 3026 a73e 6e16 9a3c
00000060: 3ac7 10bd 20ed 44be 9d92 8cbc 6fcc da3c
00000070: a65e 843e bd3e 403e 3bed 643e 6149 cabd
00000080: 718d 863e eb0f eb3e cc32 aa3e 9573 8f3e
00000090: c00c 88bd 38e4 9c3e 699f ca3e 3263 1b3e
000000a0: 43bc c23e 661e 303e 3b7b 123e 3345 163e
000000b0: 585e 883e 496c 093e 9f7d 1d3e b924 c13e
000000c0: 7d0c 523e 1e91 b33d 86c2 a43d cbc8 6bbe
000000d0: f494 8d3e 1d4f a8bd 6984 78be c8d2 b83d
000000e0: 96e8 13be ba04 423e aa7a 88bd 1577 f7bb
000000f0: 83b5 57bd cd04 5b3d 5fc6 763e 12c8 4e3e
00000100: 6dd7 ba3e 2ecf e3bd c884 9cbe 795e 153e
00000110: 0db1 be3e b69e 003f fb88 f4bd a563 a8bb
00000120: 0652 623d 778c 74bc c41b af3e fa98 b53d
00000130: 84b6 e6bd 93ec fa3d 5949 7d3e 4d75 ae3d
00000140: d71a 1dbe 522e 76be a3bb 0bbd 0f1f 693e
00000150: 7541 6ebe a35f f83e 66c4 303e 4baa f63d
00000160: b3c7 ee3e 0d23 c33e 8b2e e0bd d8d7 c83d
00000170: 9af0 0b3e 890d a33e 22f5 213e e460 0abe
00000180: 0e43 203e f572 02be 1b19 913e fb2a af3e
00000190: 6ff7 8abd c455 493d 4bbb 8f3e 5256 223e
000001a0: de5b 4a3e d6b4 cb3d 0a59 3e3e 0c86 3b3e
000001b0: 0e27 7abe 3942 883d f41c 82bd 76c7 dd3d
000001c0: c7ee 823d 5b5a efbc be9e 463e 4394 7a3d
000001d0: 4cbc 1ebe e1a8 ca3e 27d6 043f 780a aabc
000001e0: 75dc e43e e91e f83d 4911 dc3c 237d 9e3e
000001f0: c9a4 b43e f32f 8c3d 8d71 3dbe 21fa c1bb
00000200: 2e0e 913d 6fcf 793d 3240 953e 9e4e 48bd
00000210: 0a1a 953e 09ce 1ebe 9ace 973d 1915 153e
00000220: a62a 48be ddbb b23e 022b 853e 85c4 2e3e
00000230: 68eb 403d 70d0 a03d b562 133e 2f39 c53e
00000240: cb62 473d c149 58be e36f 86be ef62 943e
00000250: 5133 53be 3123 973e 1b98 1a3f 0dbb 033d
00000260: b3ae a03e 1722 313e 68e9 d43e 8152 0bbd
00000270: 1b5a 5bbe b0c4 e53e 2776 653d fdd0 69bd
00000280: 4b12 ffbd e302 5bbd d152 e43d 5256 3d3e
00000290: 78af 4c3d 7cbd f1be 2d8c 91bb 5256 1fbe
000002a0: 9fa0 b2bd 4ace 07be fc09 3ebe f82f e7be
000002b0: 2705 29bd 91b1 e3bd f2ed a1bd 2eab 84bb
000002c0: 6417 e1bd 6d60 ce39 b874 9fbd 90a2 ac3e
000002d0: a332 bd3c dd9a 9a3e 7b0c 95bd 8dd9 4c3e
000002e0: cdf2 a33e 8f0e 753d 25e7 e83c f46a 233e
000002f0: d63f 463e 58fc 183e f475 9e3e 075f 2f3e
00000300: f86f c73d 9ac4 0d3e c544 553e ecb4 4d3d
00000310: 3c8e d73c 004c 813e 6039 09bd f162 ea3e
00000320: 129c 893e 49cb 29bc 1c1c c73e 58a5 0f3d
00000330: 5421 e73e 9e68 d23d bd9a 053e 8fcc 7f3e
00000340: 6fb6 3bbd cc51 41be 7a9f 123e a4a3 303e
00000350: cb15 be3e 03cd 0d3f 8110 b33e 2fcc c5bd
00000360: 0c8e 13bb c643 093d 35da ce3d 1f92 8c3e
00000370: 8c8f 173e 70b0 203d 77a3 393d aa97 403e
00000380: 6807 c43e a612 003e 7e06 98be 7259 0a3e
00000390: bd08 84be 56f3 f6bd 29e0 773b 34b8 2d3e
000003a0: ba40 9e3d 648a 093d ef4e 873e d922 0bbe
000003b0: f5af ac3d 1a8c 543e 2218 9e3d 6e34 2f3e
000003c0: d6a2 9fbb e0a1 aebc b3e6 773e 7121 ec3e
000003d0: 885b ca3d 3f32 88bd 5c9d 373d 6ffc 713d
000003e0: 2552 563e b852 443d 05bb aabe 43ff 8abe
000003f0: 2276 413a d201 8c3c ddd3 69be e2fd 43be

head.read_net.bias f4 [150]
0.2633694 0.2709785 0.36553887 0.3806816 0.35747594 0.10357528 0.07813557 0.21960087
0.24669525 0.2161831 0.32041508 0.23815477 0.22789174 0.068896756 0.24381684 0.38898143
0.3508503 0.21796663 0.20343202 0.22069056 0.2742127 0.40920848 0.18968776 0.15662184
0.24295124 0.25726262 0.4870111 0.10984454 0.22128938 0.24797966 0.27064562 0.290054
0.20190945 0.25876617 0.36433315 0.34899735 0.22798795 0.26674446 0.2696454 0.31333393
0.25147364 0.3667403 0.0642722 0.2260615 0.31421477 0.27454212 0.37136605 0.24066225
0.24989782 0.19855267 0.29195768 0.2179913 0.36879697 0.38248017 0.43523568 0.1831841
0.2989067 0.17054982 0.17452952 0.16484675 0.35546282 0.08204469 0.33599386 0.13340777
0.24581003 0.23917213 0.27502298 0.33371785 0.33237728 0.092934206 0.15424553 0.14860134
0.2781264 0.2447498 0.23260993 0.1689045 0.18156499 0.2591242 0.27914125 0.13738817
0.18985341 0.20745045 0.18407056 0.12956992 0.16895194 0.24723433 0.39831454 0.2946712
0.35288388 0.209533 0.32663113 0.24628781 0.3223062 0.29942068 0.31777316 0.1086038
0.20839448 0.2373996 0.38771102 0.26216468 0.28464675 0.17214656 0.2165564 0.3002058
0.35214883 0.2894744 0.3416132 0.33198857 0.32195324 0.23966545 0.19156642 0.20473184
0.19277698 0.32508615 0.306905 0.3345248 0.17730777 0.23622426 0.15872833 0.27555394
0.26611203 0.2683921 0.18608718 0.28220716 0.20095411 0.22482622 0.24900377 0.2879332
0.22118235 0.1504277 0.21053389 0.45242262 0.2896271 0.2175194 0.14625153 0.20179346
0.19216414 0.41141155 0.34716547 0.2560759 0.27003956 0.3185228 0.13272853 0.2687321
0.22286934 0.3077607 0.41161215 0.25226283 0.33621678 0.307389
00000000: 5bd8 863e b2bd 8a3e e927 bb3e b3e8 c23e
00000010: 1607 b73e 471f d43d 8b05 a03d 0ddf 603e
00000020: ae9d 7c3e 1a5f 5d3e 720d a43e d8de 733e
00000030: 745c 693e be19 8d3d 1fab 793e 9328 c73e
00000040: a7a2 b33e a532 5f3e 7c50 503e b5fc 613e
00000050: 9b65 8c3e c683 d13e 823d 423e 7a61 203e
00000060: 36c8 783e edb7 833e 8559 f93e 2df6 e03d
00000070: af99 623e 61ee 7d3e 1092 8a3e f581 943e
00000080: 5ac1 4e3e 007d 843e e089 ba3e c8af b23e
00000090: ac75 693e bb92 883e f60e 8a3e 4e6d a03e
000000a0: 27c1 803e 62c5 bb3e 25a1 833d aa7c 673e
000000b0: c2e0 a03e c990 8c3e b123 be3e 2a70 763e
000000c0: 37e5 7f3e 6451 4b3e 7a7b 953e 1d39 5f3e
000000d0: f5d2 bc3e 71d4 c33e 36d7 de3e 9d94 3b3e
000000e0: 4d0a 993e 9da4 2e3e deb7 323e 96cd 283e
000000f0: 39ff b53e 0c07 a83d 6307 ac3e 0c9c 083e
00000100: a0b5 7b3e 8ae9 743e d0cf 8c3e 11dd aa3e
00000110: 5b2d aa3e 4a54 be3d 8af2 1d3e f32a 183e
00000120: 9566 8e3e b19f 7a3e 4c31 6e3e 4df5 2c3e
00000130: 2cec 393e edab 843e 9aeb 8e3e 7caf 0c3e
00000140: ef68 423e e46d 543e fe7c 3c3e faad 043e
00000150: bd01 2d3e ff2a 7d3e e2ef cb3e 25df 963e
00000160: 32ad b43e d28f 563e 323c a73e df32 7c3e
00000170: 5105 a53e ab4d 993e 2ab3 a23e ab6b de3d
00000180: 5d65 553e e118 733e 0f82 c63e 733a 863e
00000190: 38bd 913e 3047 303e f6c0 5d3e 93b4 993e
000001a0: da4c b43e fd35 943e ede7 ae3e 68fa a93e
000001b0: 0ed7 a43e dc6a 753e fd29 443e 39a5 513e
000001c0: 5467 453e b171 a63e a722 9d3e d646 ab3e
000001d0: 2b90 353e c6e4 713e ae89 223e 6815 8d3e
000001e0: d63f 883e b06a 893e a38d 3e3e 757d 903e
000001f0: eac6 4d3e d838 663e d8fa 7e3e fb6b 933e
00000200: a07d 623e b809 1a3e 3296 573e f0a3 e73e
00000210: 014a 943e 68bd 5e3e f6c2 153e f2a2 4e3e
00000220: adc6 443e 89a4 d23e acbf b13e 611c 833e
00000230: a042 8a3e 6c15 a33e fde9 073e 4197 893e
00000240: dc37 643e cf92 9d3e d4be d23e 9828 813e
00000250: 9b24 ac3e 1762 9d3e

head.write_net.weight f4 [150, 5]
-0.120601654 0.13250697 -0.32312742 -0.06421849 -0.37611222 0.41491026 -0.39643788 0.22396207
0.40044487 -0.29528236 -0.30467725 0.21700174 0.30248237 -0.3466811 0.18555683 -0.33084834
-0.24302655 0.1640405 -0.36854184 -0.3541064 -0.10145196 -0.3185547 -0.35153866 -0.39942098
-0.2955795 0.009006858 -0.08864397 -0.389957 0.4018045 -0.05471903 -0.2639433 0.04581198
-0.4381957 0.21322668 -0.124185264 0.1721474 -0.20072523 -0.21002987 -0.12800914 -0.2810896
0.38437027 -0.18911538 0.2745245 0.14251792 0.2228564 0.24498409 0.05357325 0.36964482
0.3829292 0.30811232 -0.14926675 0.39446902 -0.19464844 0.38367456 -0.248121 0.28181243
0.41527897 0.01625958 0.3733588 0.40609145 0.1668508 -0.15762144 0.10148305 -0.26806912
0.2933852 -0.16471103 0.010890096 -0.11541045 0.28745043 -0.03465554 -0.010587752 -0.106592
-0.18074554 0.23408794 -0.20282908 0.35371256 0.07725692 0.3391086 -0.27768165 -0.20474026
0.24983722 0.07705039 0.43085003 -0.053494066 -0.10987958 -0.4162157 0.40062302 0.3841439
-0.06770599 0.16294879 0.13553882 0.19729 -0.067498565 0.37967616 -0.2436253 0.226951
-0.32835978 0.08275813 -0.25430232 0.2883544 0.34684885 0.16391128 0.29734892 0.11263722
0.043522745 0.25376576 -0.10984829 -0.29118216 -0.43344826 0.051206023 0.17559797 -0.06528109
-0.37232918 0.38974833 -0.23797454 0.2729997 -0.38576108 -0.11945975 -0.15929943 0.3500982
-0.18155059 -0.3138184 -0.102963 -0.32532042 -0.16008815 0.20359176 -0.07239792 0.21802425
0.14003634 -0.039496213 0.40331692 -0.25733626 0.42487103 -0.40137625 -0.4139437 -0.31793344
-0.3543762 -0.14736661 0.20779407 0.39951372 -0.1824626 -0.10190672 -0.37137383 -0.09822035
-0.13633108 0.4024058 -0.04941982 0.42974967 0.32102782 0.36840189 -0.19410202 0.44699657
-0.34598574 -0.031140089 -0.30286017 0.037749976 0.05393547 -0.20145454 -0.060069054 0.21936488
0.39961267 0.050622225 -0.33175203 0.43258792 -0.29817116 0.3520316 -0.27587074 0.3371241
0.43135607 0.2807461 0.35208946 0.19374591 0.16934806 0.094108045 -0.35832894 0.1756916
-0.13965675 0.25413537 -0.027435958 -0.3392173 0.30250716 0.1971125 -0.23451033 -0.025454074
0.23207933 -0.30539766 -0.40325335 -0.08398941 -0.3044038 -0.19156212 0.21295524 -0.24912806
-0.29711622 0.06680739 -0.3705336 -0.18372339 0.20954835 -0.103165954 -0.14644608 -0.13517356
0.40421808 -0.26310417 0.048988193 -0.11809549 0.119448304 -0.34238788 -0.29076982 0.39044428
-0.031915396 -0.008342415 -0.07175344 -0.055352807 0.38696277 0.42292035 0.3358482 0.35963082
-0.17356285 -0.05694598 0.1758833 0.16600293 0.38825005 0.39020842 0.16649318 -0.20770718
-0.08442068 -0.15432143 -0.12754607 0.29468 0.21871418 0.43023598 0.25155532 0.05725372
0.19914901 -0.23369865 0.09462142 0.06688905 0.3284647 0.06373489 0.09259111 0.24163783
-0.15213206 -0.37857112 0.3329292 -0.20438562 0.018196136 -0.018650234 0.36820972 0.24162096
0.3948077 0.37089288 -0.3179115 0.12757152 -0.052748412 0.028597265 0.35454053 -0.44364887
00000000: 00fe f6bd e8af 073e f570 a5be fc84 83bd
00000010: c891 c0be 1e6f d43e e8f9 cabe 5056 653e
00000020: 1c07 cd3e 402f 97be a8fe 9bbe b435 5e3e
00000030: f8de 9a3e 2f80 b1be 9c02 3e3e f464 a9be
00000040: f4db 78be 3cfa 273e 84b1 bcbe 6f4d b5be
00000050: 0cc6 cfbd 9a19 a3be e0fc b3be e880 ccbe
00000060: 3256 97be 8091 133c f88a b5bd 72a8 c7be
00000070: 52b9 cd3e 1021 60bd 9423 87be 58a5 3b3d
00000080: 305b e0be 1858 5a3e d854 febd 6847 303e
00000090: ea8a 4dbe 1212 57be d414 03be faea 8fbe
000000a0: 2ecc c43e 76a7 41be 7a8e 8c3e 38f0 113e
000000b0: 7834 643e 1cdd 7a3e a06f 5b3d 1642 bd3e
000000c0: 4c0f c43e e6c0 9d3e 62d9 18be d8f7 c93e
000000d0: ec51 47be fe70 c43e 6e13 7ebe b849 903e
000000e0: 729f d43e d032 853c e228 bf3e 38eb cf3e
000000f0: f0da 2a3e 8467 21be 58d6 cf3d 5b40 89be
00000100: 9636 963e 02aa 28be 606c 323c 505c ecbd
00000110: b42c 933e f8f2 0dbd 4078 2dbc e84c dabd
00000120: 5c15 39be c0b4 6f3e 6db2 4fbe d019 b53e
00000130: e038 9e3d a49f ad3e 4a2c 8ebe 6ea7 51be
00000140: 54d5 7f3e 98cc 9d3d 6098 dc3e 981c 5bbd
00000150: 8c08 e1bd 391a d5be 761e cd3e 82ae c43e
00000160: 70a9 8abd 0cdc 263e b0ca 0a3e 6406 4a3e
00000170: b03c 8abd ea64 c23e e978 79be d865 683e
00000180: c61e a8be 187d a93d ea33 82be 30a3 933e
00000190: 2c96 b13e 5cd8 273e 1e3e 983e 58ae e63d
000001a0: e844 323d 96ed 813e 24f8 e0bd d415 95be
000001b0: eeec ddbe 68bd 513d f4cf 333e 18b2 85bd
000001c0: eea1 bebe 188d c73e 99af 73be 9ec6 8b3e
000001d0: 7a82 c5be 50a7 f4bd 641f 23be 1240 b33e
000001e0: 66e8 39be ceac a0be 44de d2bd 6690 a6be
000001f0: 26ee 23be 5c7a 503e 5c45 94bd c041 5f3e
00000200: b065 0f3e c8c6 21bd 8e7f ce3e 94c1 83be
00000210: b288 d93e 3081 cdbe 6ef0 d3be 2cc8 a2be
00000220: cc70 b5be 46e7 16be f8c7 543e 108d cc3e
00000230: 7ad7 3abe 78b4 d0bd b624 bebe c027 c9bd
00000240: 609a 0bbe 2208 ce3e 706c 4abd 2608 dc3e
00000250: c25d a43e 2c9f bc3e aec2 46be bcdc e43e
00000260: 0b25 b1be 8019 ffbc 7d10 9bbe b89f 1a3d
00000270: 70eb 5c3d 194a 4ebe f80a 76bd 30a1 603e
00000280: 089a cc3e 4059 4f3d 67db a9be 2a7c dd3e
00000290: e4a9 98be 7c3d b43e ee3e 8dbe 889b ac3e
000002a0: b4da dc3e f4bd 8f3e 1245 b43e 5465 463e
000002b0: 9469 2d3e b8bb c03d e476 b7be 80e8 333e
000002c0: 2e02 0fbe 081e 823e 60c1 e0bc e4ad adbe
000002d0: 38e2 9a3e dcd7 493e 7a23 70be 1085 d0bc
000002e0: 34a6 6d3e 155d 9cbe 3977 cebe a402 acbd
000002f0: d1da 9bbe dc28 44be f010 5a3e 6d1b 7fbe
00000300: 9e1f 98be 50d2 883d 94b6 bdbe fc21 3cbe
00000310: d893 563e ac48 d3bd f6f5 15be f06a 0abe
00000320: acf5 ce3e 97b5 86be d8a7 483d 0cdc f1bd
00000330: 50a1 f43d 774d afbe c8df 94be 50e8 c73e
00000340: b8b9 02bd a0ae 08bc 78f3 92bd a0b9 62bd
00000350: fc1f c63e 0489 d83e 4cf4 ab3e 8821 b83e
00000360: 76ba 31be 3040 69bd c01a 343e acfc 293e
00000370: b6c8 c63e 66c9 c73e 307d 2a3e 31b1 54be
00000380: c0e4 acbd 7006 1ebe 709b 02be 4ce0 963e
00000390: 9cf6 5f3e e447 dc3e dccb 803e e082 6a3d
000003a0: b8ed 4b3e b34e 6fbe e0c8 c13d 20fd 883d
000003b0: 862c a83e 7087 823d 68a0 bd3d e86f 773e
000003c0: 82c8 1bbe 13d4 c1be b275 aa3e 774a 51be
000003d0: 1010 953c 60c8 98bc fc85 bc3e 7c6b 773e
000003e0: 3c24 ca3e ace5 bd3e 4cc5 a2be 1ca2 023e
000003f0: b80e 58bd d044 ea3c 5686 b53e f225 e3be

head.write_net.bias f4 [150]
0.12841481 -0.14244044 0.26754296 0.15841842 -0.27102122 0.11959332 0.11940616 0.08645904
-0.15177643 -0.39343226 -0.21472353 0.042476565 0.42053527 0.43297338 -0.21246544 -0.25590712
0.063405335 0.19949514 -0.2637789 0.21334279 0.1052441 -0.013960391 0.37569928 -0.22898842
0.3544215 0.3009078 0.08799219 -0.40077972 -0.04782775 -0.08635849 -0.09123856 -0.43317717
-0.20334855 -0.42724925 0.34989983 0.021772355 -0.13534722 0.25824732 -0.35860133 0.26256704
0.2967577 -0.3865811 -0.06837234 -0.36100683 0.33859724 0.07613838 -0.237107 0.07911879
-0.24888432 -0.07061431 -0.31597114 0.22076225 -0.4366856 0.090263665 -0.3785966 0.014224619
-0.18928659 -0.018591285 -0.40774763 -0.14512086 0.40417564 0.07131398 -0.30500698 -0.15379742
-0.03711176 -0.24215181 0.42706227 -0.19849075 -0.037985712 0.21896297 0.027793527 0.3136347
-0.40731844 0.3612048 -0.13451937 -0.4011172 0.3778981 -0.07437974 0.41754693 -0.09427938
0.058461905 -0.025718361 -0.32867417 0.40727484 0.19569981 0.38748413 -0.37094414 -0.21673253
0.045876056 0.43898517 -0.06778383 0.10759044 0.29517823 -0.4005769 0.07196081 0.29947233
-0.113622844 -0.41207942 0.1005522 0.11626172 -0.29745188 0.32337838 0.3915367 0.23990548
-0.21078552 0.11132944 -0.006154448 0.06302565 -0.38944316 -0.029550463 0.331905 -0.025844812
0.28203028 0.36246896 -0.14447552 -0.0023374557 0.20309931 0.44573373 0.116795 -0.3141507
-0.11645934 -0.07296005 -0.37709934 0.031847686 0.37773186 0.18024874 0.39707255 0.24692196
-0.007140547 -0.12682027 0.28001416 -0.29918122 -0.034832 -0.2930578 0.40875268 -0.34006423
-0.2569581 -0.06522527 -0.059414536 -0.3314922 -0.44309184 -0.24826004 0.3947087 -0.032168627
0.30516708 0.031571597 0.22615415 -0.37454095 0.34458947 -0.3134233
00000000: 2c7f 033e e8db 11be 64fb 883e 7038 223e
00000010: 4bc3 8abe 58ed f43d 388b f43d 7011 b13d
00000020: 486b 1bbe f46f c9be 7ce0 5bbe e8fb 2d3d
00000030: 6650 d73e b0ae dd3e 8a90 59be 4206 83be
00000040: a8da 813d 7448 4c3e 070e 87be 8876 5a3e
00000050: 388a d73d 20ba 64bc a85b c03e f17b 6abe
00000060: bc76 b53e 9610 9a3e 4035 b43d 0033 cdbe
00000070: 08e7 43bd b8dc b0bd 48db babd 66c9 ddbe
00000080: 9a3a 50be 6ac0 dabe 1226 b33e f05b b23c
00000090: 7698 0abe fe38 843e 989a b7be 306f 863e
000000a0: a0f0 973e f5ed c5be cc06 8cbd e3d5 b8be
000000b0: 9e5c ad3e 70ee 9b3d 2dcc 72be 0809 a23d
000000c0: 88db 7ebe 3c9e 90bd f8c6 a1be 800f 623e
000000d0: 4195 dfbe 28dc b83d 6ad7 c1be 600e 693c
000000e0: 58d4 41be c04c 98bc 4cc4 d0be 909a 14be
000000f0: 1cf0 ce3e 100d 923d e029 9cbe 127d 1dbe
00000100: 8002 18bd a5f6 77be e8a7 da3e 2941 4bbe
00000110: e896 1bbd d437 603e 40af e33c ba94 a03e
00000120: 0b8c d0be d6ef b83e 72bf 09be 3c5f cdbe
00000130: dc7b c13e 6854 98bd b6c8 d53e 8c15 c1bd
00000140: c075 6f3d 50af d2bc fb47 a8be 5486 d03e
00000150: 8865 483e 5264 c63e 64ec bdbe 22ef 5dbe
00000160: 88e8 3b3d aac2 e03e 40d2 8abd 6058 dc3d
00000170: 9a21 973e 6a18 cdbe 3060 933d 7054 993e
00000180: 18b3 e8bd 13fc d2be 50ee cd3d a01a ee3d
00000190: 9d4b 98be da91 a53e 8077 c83e c8a9 753e
000001a0: 29d8 57be b000 e43d 40ab c9bb 9813 813d
000001b0: 1865 c7be d013 f2bc 74ef a93e 80b8 d3bc
000001c0: 4666 903e 8895 b93e 64f1 13be 0030 19bb
000001d0: 44f9 4f3e 3637 e43e 3832 ef3d 5cd8 a0be
000001e0: 3c82 eebd 146c 95bd 2a13 c1be b872 023d
000001f0: 1266 c13e 2093 383e 184d cb3e 1cd9 7c3e
00000200: 40fb e9bb 2cdd 01be 045e 8f3e 482e 99be
00000210: 00ac 0ebd ac0b 96be 0848 d13e e61c aebe
00000220: 0390 83be d494 85bd a85c 73bd 58b9 a9be
00000230: efdc e2be e137 7ebe 4217 ca3e 40c3 03bd
00000240: dc3e 9c3e 3851 013d f494 673e d5c3 bfbe
00000250: 086e b03e 0579 a0be
