Weight/mann.pth (torch, 11463 bytes, 8 tensors)

controller.controller_net.weight f4 [5, 22]
0.1643256 -0.07552291 0.20531623 -0.092578515 0.1057304 -0.10397762 -0.16257907 -0.039653562
0.0094490815 -0.053518515 -0.0428229 -0.027891941 0.16468441 0.15363596 0.1702988 0.056914557
0.068840295 -0.17790817 -0.07437605 -0.04141583 -0.19759472 -0.13069844 0.0010600088 0.17690994
-0.18391475 -0.0966238 -0.20799075 0.19522054 -0.21341847 -0.16184154 -0.16563343 0.061302852
-0.2070607 -0.004787957 0.06048616 -0.051580846 -0.14362988 -0.17552136 0.1892619 -0.18357381
-0.061800346 0.10976779 -0.12929356 0.20984183 -0.017758437 -0.16405848 0.20130408 0.14316826
-0.08928521 0.08426155 0.040989134 -0.1469746 0.08431273 0.11852592 -0.18767944 0.21893506
0.081387684 -0.1488304 0.08799307 0.025379142 -0.045427036 -0.19037642 0.18604028 -0.07653807
0.1309301 -0.1572292 0.06677984 -0.007286059 0.18467644 0.12662408 -0.17008181 0.2003517
0.13829395 -0.12031639 0.08046718 -0.05188157 0.04389908 0.009734635 -0.11656889 0.14064364
0.15610304 -0.18443273 0.13872384 0.0571134 -0.094387 0.0019957123 0.18603487 0.051678233
-0.11403964 0.12481168 0.0054757693 0.022880878 -0.091776 0.20303105 -0.052908596 -0.09838014
-0.057936773 0.026456226 0.036797713 -0.15479675 -0.17216443 -0.11172249 0.21372853 0.11868837
0.16589391 -0.0109040765 0.20255849 -0.20518228 -0.061297446 0.018121503
00000000: f844 283e c1ab 9abd 6b3e 523e ce99 bdbd
00000010: 2e89 d83d 38f2 d4bd 217b 26be c66b 22bd
00000020: 52d0 1a3c 3b36 5bbd 1167 2fbd a47d e4bc
00000030: 08a3 283e bf52 1d3e cf62 2e3e 3d1f 693d
00000040: 24fc 8c3d 8f2d 36be 7852 98bd a5a3 29bd
00000050: 4556 4abe d0d5 05be feef 8a3a e127 353e
00000060: 2654 3cbe b3e2 c5bd 87fb 54be e5e7 473e
00000070: 5f8a 5abe cab9 25be cf9b 29be b318 7b3d
00000080: b807 54be 4be4 9cbb 56c0 773d 7046 53bd
00000090: b613 13be dfbb 33be dfcd 413e c6fa 3bbe
000000a0: 5c22 7dbd efcd e03d 8865 04be c7e0 563e
000000b0: 247a 91bc f2fe 27be a822 4e3e b39a 123e
000000c0: 2adb b6bd 5291 ac3d 39e4 273d 8280 16be
000000d0: 27ac ac3d b8bd f23d 0a2f 40be 8330 603e
000000e0: 96ae a63d ff66 18be b635 b43d ebe7 cf3c
000000f0: b311 3abd 09f2 42be 5881 3e3e febf 9cbd
00000100: 8a12 063e b100 21be dec3 883d e5bf eebb
00000110: d21b 3d3e bea9 013e ed29 2ebe ff28 4d3e
00000120: ee9c 0d3e 7168 f6bd facb a43d c581 54bd
00000130: 86cf 333d 057e 1f3c acbb eebd e304 103e
00000140: 7ad9 1f3e efdb 3cbe 9f0d 0e3e beef 693d
00000150: f94d c1bd 7fca 023b ed7f 3e3e 8eac 533d
00000160: 9d8d e9bd 449d ff3d 156e b33b ae70 bb3c
00000170: 0ef5 bbbd 5fe7 4f3e afb6 58bd 877b c9bd
00000180: 1c4f 6dbd baba d83c 33b9 163d 0a83 1ebe
00000190: df4b 30be c3ce e4bd a7db 5a3e e312 f33d
000001a0: 18e0 293e 03a7 32bc 7e6b 4f3e 4e1b 52be
000001b0: 0813 7bbd 8c73 943c

controller.controller_net.bias f4 [5]
-0.1943752 -0.055967227 -0.014370044 -0.072648615 -0.000117883086
00000000: 4b0a 47be e43d 65bd 5570 6bbc ccc8 94bd
00000010: 0038 f7b8

controller.gate_net.weight f4 [1, 5]
-0.22292888 -0.24961543 0.20707113 0.020001233 -0.41829434
00000000: 7847 64be 309b 7fbe 740a 543e a0d9 a33c
00000010: ad2a d6be

head.read_net.weight f4 [150, 5]
0.34006187 -0.22231571 0.51183105 0.36915073 0.30238405 -0.579814 -0.40210113 -0.0534177
0.20227507 0.4530755 -0.20474076 -0.43676597 -0.33925217 -0.030460965 -0.10452916 0.059483238
0.059775706 -0.048164323 0.10499365 0.23796627 0.26179457 -0.25857377 0.0669908 -0.08260265
-0.2555213 -0.08236566 0.13389552 0.02688892 -0.0232226 -0.25625345 0.284088 -0.4522761
-0.45394984 0.3910169 0.4025563 -0.11860786 0.37416127 -0.05427738 -0.12844601 -0.17908065
0.32211238 -0.018470291 0.17969644 -0.32056296 0.14003648 0.5275735 0.02782299 0.20575564
0.32668152 0.03669911 0.21381275 -0.41222516 -0.3994909 -0.33085847 0.273664 0.2607958
-0.029686378 0.24302143 0.21082483 -0.31816363 0.059121434 -0.48511192 0.04137302 0.30103314
0.3494376 0.05219403 -0.11077008 -0.3214516 0.3591959 0.15121882 0.22467543 0.2899137
0.42355403 0.07693119 0.23040102 0.32306316 0.2929454 0.354033 0.2768055 0.15157036
-0.07553087 -0.5034269 -0.18420224 0.27775642 -0.069458954 0.113560945 0.48191625 -0.26867276
-0.0064934725 0.18943852 -0.04614506 -0.04181017 0.32369798 0.1353296 -0.26578242 0.15121959
-0.057627026 0.44350123 0.17791963 0.22201319 0.16847882 0.38240594 0.30087936 0.35169795
0.4644368 -0.036249086 -0.3396783 0.15095863 0.05529324 -0.13074464 -0.34363842 0.3531939
-0.4174015 -0.060188435 -0.39815846 0.31488165 -0.04548654 -0.22867809 -0.44832674 -0.38570288
-0.27400988 -0.2684899 -0.4377473 0.15375328 -0.17622665 0.24069877 -0.46891183 -0.0033103442
0.04820484 -0.517776 -0.023199217 -0.07224996 0.1387103 -0.09185519 0.2743418 0.47741067
0.45354056 0.3642863 -0.4649448 -0.18274927 -0.394962 -0.20490605 -0.3854376 0.038880844
-0.4853546 -0.21424824 0.29989147 0.24160428 -0.5737698 0.0045470395 -0.06628439 0.50195646
-0.24855123 0.1857141 0.15486929 -0.19738197 0.19852756 -0.09505828 0.033717606 0.27019018
-0.068795785 -0.24232009 -0.32168144 0.35037142 0.13086262 -0.32804722 -0.52540785 -0.31341094
0.14604501 0.26998338 0.026168158 0.3518794 0.13396521 -0.39791495 -0.104867585 0.57467103
0.12856726 0.42341194 0.099787354 0.3598219 0.4885534 -0.31213063 0.31834462 0.0024689708
0.017153488 0.1394702 0.30261502 -0.09003585 0.08069639 -0.113977775 0.42065123 0.080608696
-0.039276026 -0.24109937 -0.2428657 0.2078143 -0.011048996 -0.081443764 0.25910938 0.35018238
0.19146013 0.4688019 0.25083634 0.3303547 0.2079914 -0.1275648 -0.36444166 -0.14672385
0.39453402 0.16536818 -0.4948098 -0.35588014 0.003476406 -0.20384888 -0.13965246 0.20300755
0.02221384 0.46012485 0.034813225 0.42687365 0.23032664 0.523196 0.29913613 0.42522022
0.22053659 0.21977039 -0.22865532 -0.068038024 -0.34124213 0.07956683 -0.19726835 -0.24485281
0.15956965 -0.3442906 -0.28131595 0.14551799 0.4134581 -0.15977788 -0.15118495 0.08495587
0.014889356 -0.425716 -0.14939912 0.18123338 -0.5470074 0.0643132 -0.28821963 -0.011272031
-0.34117657 -0.274696 0.23423913 0.4508054 0.21975987 0.04651604 0.26882437 -0.102983765
00000000: 971c ae3e bba6 63be 5c07 033f 5301 bd3e
00000010: 15d2 9a3e b16e 14bf 33e0 cdbe 85cc 5abd
00000020: 3221 4f3e 83f9 e73e 90a7 51be ca9f dfbe
00000030: 76b2 adbe 4689 f9bc 6213 d6bd b2a4 733d
00000040: 5fd7 743d f447 45bd e906 d73d 6ead 733e
00000050: f009 863e c863 84be 7932 893d 942b a9bd
00000060: b0d3 82be 54af a8bd e81b 093e 2746 dc3c
00000070: 523d bebc a733 83be fb73 913e bc90 e7be
00000080: 1d6c e8be 5e33 c83e dc1b ce3e ade8 f2bd
00000090: 1192 bf3e f551 5ebd 5a87 03be eb60 37be
000000a0: eaeb a43e 024f 97bc 5802 383e d420 a4be
000000b0: b965 0f3e 0f0f 073f 0aed e33c 9bb1 523e
000000c0: cd42 a73e ce51 163d bbf1 5a3e 2d0f d3be
000000d0: 128a ccbe 4866 a9be b01d 8c3e 0787 853e
000000e0: d930 f3bc 9cda 783e 77e2 573e 58e6 a2be
000000f0: 5129 723d 9760 f8be c176 293d 0421 9a3e
00000100: 7ce9 b23e 68c9 553d 6cdb e2bd 4e95 a4be
00000110: 86e8 b73e 1bd9 1a3e 5111 663e 926f 943e
00000120: 13dc d83e 1a8e 9d3d 3fee 6b3e 8968 a53e
00000130: f1fc 953e d043 b53e 73b9 8d3e 4335 1b3e
00000140: eeaf 9abd 96e0 00bf 839f 3cbe 1736 8e3e
00000150: 7f40 8ebd a492 e83d babd f63e 7a8f 89be
00000160: 32c7 d4bb 2cfc 413e 9a02 3dbd 2441 2bbd
00000170: bebb a53e d893 0a3e a214 88be 4fd9 1a3e
00000180: 510a 6cbd 9812 e33e 9030 363e 6d57 633e
00000190: b685 2c3e b6ca c33e dc0c 9a3e c111 b43e
000001a0: a9ca ed3e ec79 14bd 50ea adbe e694 1a3e
000001b0: 2a7b 623d ece1 05be 60f1 afbe d5d5 b43e
000001c0: a6b5 d5be 2688 76bd 6ddb cbbe 2b38 a13e
000001d0: 1850 3abd 972a 6abe 158b e5be d97a c5be
000001e0: 064b 8cbe 8277 89be 6a20 e0be 8071 1d3e
000001f0: c274 34be bd79 763e 3615 f0be 5cf2 58bb
00000200: 7072 453d f88c 04bf 490c bebc c9f7 93bd
00000210: 130a 0e3e 931e bcbd 8776 8c3e 2c6f f43e
00000220: 7836 e83e bc83 ba3e 3f0d eebe a022 3bbe
00000230: 7638 cabe e4d2 51be 1458 c5be 8541 1f3d
00000240: 6680 f8be e463 5bbe 608b 993e 1d67 773e
00000250: 94e2 12bf 55ff 943b 1cc0 87bd 3880 003f
00000260: 3784 7ebe d62b 3e3e 0e96 1e3e 801e 4abe
00000270: cf4a 4b3e eaad c2bd 791b 0a3d 5e56 8a3e
00000280: cee4 8cbd c222 78be 6eb3 a4be e263 b33e
00000290: da00 063e cef5 a7be 2181 06bf 6677 a0be
000002a0: d38c 153e 433b 8a3e 9b5e d63c 8929 b43e
000002b0: 2d2e 093e 82bb cbbe d1c4 d6bd a41d 133f
000002c0: 23a7 033e 73c9 d83e 505d cc3d 933a b83e
000002d0: ac23 fa3e 96cf 9fbe 11fe a23e 75ce 213b
000002e0: 7985 8c3c 47d1 0e3e 5bf0 9a3e b764 b8bd
000002f0: 2644 a53d 2e6d e9bd 995f d73e 2c16 a53d
00000300: e6df 20bd c1e2 76be c9b1 78be 46cd 543e
00000310: d906 35bc fdcb a6bd fca9 843e 1b4b b33e
00000320: 200e 443e cd06 f03e 9f6d 803e 4024 a93e
00000330: b3fb 543e 59a0 02be 1998 babe c73e 16be
00000340: 5d00 ca3e 4756 293e b657 fdbe ec35 b6be
00000350: 6ad4 633b c3bd 50be 0e01 0fbe 36e1 4f3e
00000360: cdf9 b53c 7c95 eb3e 5098 0e3d 2f8f da3e
00000370: bfda 6b3e 2cf0 053f 5f28 993e 77b6 d93e
00000380: 58d4 613e 7d0b 613e 9f24 6abe 8557 8bbd
00000390: 4ab7 aebe eff3 a23d b700 4abe b2ba 7abe
000003a0: 3a66 233e dc46 b0be a508 90be ab02 153e
000003b0: c8b0 d33e d09c 23be 3ad0 1abe 58fd ad3d
000003c0: 7cf2 733c 73f7 d9be 15fc 18be 3e95 393e
000003d0: ad08 0cbf a4b6 833d 8691 93be 53ae 38bc
000003e0: b2ae aebe f4a4 8cbe 62dc 6f3e f7cf e63e
000003f0: bb08 613e 9a87 3e3d 59a3 893e 27e9 d2bd

head.read_net.bias f4 [150]
-0.11328295 0.5136638 0.50336486 -0.11199206 0.066134915 -0.33707568 0.51890886 -0.42017832
-0.18428841 -0.09576082 0.17117599 -0.46898603 0.31562966 0.10526781 -0.252515 0.2294102
0.28712752 -0.43135837 -0.39033493 0.08404445 0.3485016 0.06572934 0.17167191 0.12651701
-0.19737625 0.09291135 -0.13248645 -0.49449256 0.050094068 0.08468837 -0.4112967 0.30086333
0.17929253 0.5431409 0.35965532 -0.5586869 0.09527532 0.12136121 -0.4663933 0.1929197
0.17511578 -0.20818369 0.35453352 -0.23905832 -0.5981701 0.14978956 0.48567492 -0.3301541
-0.0313431 0.45607933 -0.02682442 -0.37412292 0.22050667 0.49355045 0.20508519 -0.022386719
0.35454223 -0.27086648 -0.057853132 -0.4637295 -0.45922807 0.32377222 -0.21039116 -0.3525156
-0.036927626 0.06590619 -0.43031654 0.10240798 -0.2721135 0.056155965 -0.38337526 -0.38136876
0.0038875719 -0.36175084 0.13431513 -0.07745534 -0.5676471 -0.33007833 0.024977827 -0.07610528
0.33231395 -0.5212443 0.1248022 -0.1723952 0.3340342 0.027498508 -0.16432846 -0.262614
0.37578058 -0.1763063 -0.14074108 0.052276388 -0.36856797 -0.17919682 0.35696256 0.18749306
0.038567796 0.3478402 0.12742978 0.23857827 0.016001614 0.050666455 -0.25156337 0.102745
0.41227013 -0.083857216 -0.19056083 0.05897743 -0.37439474 0.27185786 -0.42312437 0.36124676
0.3632115 0.04927286 0.31607056 0.27920297 -0.29624403 0.4708063 0.090434544 -0.31083146
-0.35020453 0.07300178 0.4142989 -0.114998914 -0.32315618 -0.017638454 -0.32812265 -0.08880737
0.33608207 0.26825497 -0.46717468 -0.2942592 -0.043549173 -0.4429872 -0.4319318 0.36445656
-0.39105138 0.23629245 0.14582667 -0.55906165 -0.06843934 0.52282023 -0.5203005 0.23068687
-0.05650598 -0.4883432 0.35204 -0.47230348 -0.5619357 -0.2985602
00000000: e400 e8bd 797f 033f 85dc 003f 185c e5bd
00000010: be71 873d 2f95 acbe 36d7 043f 9d21 d7be
00000020: 1ab6 3cbe 401e c4bd c248 2f3e f01e f0be
00000030: 369a a13e a696 d73d a549 81be 82ea 6a3e
00000040: 6102 933e 01db dcbe fbd9 c7be 7f1f ac3d
00000050: cd6e b23e 1b9d 863d c3ca 2f3e ad8d 013e
00000060: 001d 4abe 4e48 be3d 87aa 07be 212e fdbe
00000070: 702f 4d3d 1971 ad3d 7b95 d2be c20a 9a3e
00000080: 7698 373e 480b 0b3f be24 b83e 1b06 0fbf
00000090: b51f c33d 3a8c f83d 1acb eebe be8c 453e
000000a0: 8d51 333e 1b2e 55be 6b85 b53e b4cb 74be
000000b0: ad21 19bf 6f62 193e 62aa f83e f509 a9be
000000c0: 9f61 00bd 3b83 e93e e3be dbbc 0a8d bfbe
000000d0: 80cc 613e a5b2 fc3e da01 523e 5a64 b7bc
000000e0: 8f86 b53e 03af 8abe 68f7 6cbd f46d edbe
000000f0: f11f ebbe 79c5 a53e c870 57be ed7c b4be
00000100: 6c41 17bd d3f9 863d 7352 dcbe 46bb d13d
00000110: 7652 8bbe cc03 663d c349 c4be c442 c3be
00000120: a2c6 7e3b 6837 b9be e889 093e e8a0 9ebd
00000130: 5251 11bf 0700 a9be 4d9e cc3c 16dd 9bbd
00000140: 0e25 aa3e 4470 05bf 4c98 ff3d 5e88 30be
00000150: 8806 ab3e 8d44 e13c b845 28be 5875 86be
00000160: 5066 c03e a489 34be 6e1e 10be c41f 563d
00000170: f1b4 bcbe 5f7f 37be ccc3 b63e 2efe 3f3e
00000180: 44f9 1d3d 1c18 b23e f47c 023e dd4d 743e
00000190: d115 833c a187 4f3d eacc 80be f86b d23d
000001a0: 1215 d33e 55bd abbd 6122 43be 5192 713d
000001b0: abb0 bfbe f430 8b3e c2a3 d8be 56f5 b83e
000001c0: dcf6 b93e 57d2 493d 00d4 a13e b1f3 8e3e
000001d0: 4cad 97be 860d f13e bf35 b93d 4d25 9fbe
000001e0: 024e b3be f581 953d fc1e d43e 8d84 ebbd
000001f0: ba74 a5be 857e 90bc b1ff a7be a3e0 b5bd
00000200: f312 ac3e b758 893e 8531 efbe 24a9 96be
00000210: 9e60 32bd 38cf e2be 2a26 ddbe 0d9a ba3e
00000220: e337 c8be a6f6 713e 9653 153e aa1e 0fbf
00000230: ed29 8cbd 8cd7 053f 6a32 05bf 2e39 6c3e
00000240: d172 67bd 1f08 fabe 963e b43e c3d1 f1be
00000250: 05db 0fbf e2dc 98be

head.write_net.weight f4 [150, 5]
0.23024881 0.060596168 0.19218928 0.22855574 0.19831395 0.24362487 0.34244788 0.42055476
-0.22707896 -0.15016788 0.33689415 -0.2551651 0.25018108 0.09942716 -0.021625549 -0.08851585
0.2713142 0.013957411 0.18918478 0.14496344 -0.014405966 0.38529146 0.17723489 -0.11438492
-0.44126883 0.15934235 0.37007928 0.046358466 0.19063699 -0.28947517 0.1644662 0.2905538
0.20570332 -0.24652371 0.036608607 -0.020659208 -0.07261506 -0.34381333 0.041544616 -0.3368679
-0.16165835 -0.22664078 -0.13686651 -0.31061596 -0.4438114 0.054566324 0.38059688 -0.24040142
0.15159816 0.36501902 -0.28778332 0.23105997 -0.43628553 0.3051017 0.10245335 -0.25589463
0.37028003 -0.2734912 0.12723291 0.3296075 0.09754366 0.046547145 0.26176566 -0.050664008
-0.29167706 -0.19147393 -0.28560045 -0.38117748 -0.15447903 -0.04162401 -0.279216 -0.1631169
0.058526278 0.2180627 0.19938803 -0.36092323 -0.25897515 -0.08107415 -0.09399426 -0.39245158
-0.36763996 0.06310713 0.15269214 -0.37265033 -0.08705366 -0.37671286 -0.44175598 -0.07672867
0.18537575 -0.3361372 -0.33476704 0.3137756 -0.31754416 -0.3903993 0.0057279468 0.08272171
0.029462874 0.13953084 -0.17981294 -0.0965454 -0.13292235 0.30278397 0.25925583 -0.12694317
0.2759953 0.124319196 0.27644372 -0.3697449 0.21628505 -0.18549797 -0.21624766 0.0012367368
0.23197228 -0.11964464 0.13624734 0.06462991 -0.30248904 -0.21598761 -0.3422053 0.15556991
0.14346135 -0.022620618 -0.030384123 -0.3801821 -0.06420168 0.053756952 -0.1670627 -0.44532657
0.27638143 0.39295167 0.32258195 0.037303537 -0.05898148 -0.28533694 -0.43184263 -0.433869
0.33818924 0.12930256 0.21022385 -0.06629723 0.34949023 0.1293928 0.1206063 0.390777
0.21925545 0.14030409 -0.011299908 0.34890425 -0.059568703 0.36562663 0.3986795 0.28018028
0.19424486 -0.13198403 -0.43420523 -0.14244372 -0.3683503 -0.40751404 -0.42163065 0.2791136
-0.38423744 -0.16960785 0.11896551 0.031002104 -0.06879696 0.3363052 0.43256503 0.050124228
0.036168963 -0.13484874 -0.17910293 0.24840784 0.36260164 0.43426496 0.35996473 0.2725944
-0.30828163 -0.23786455 -0.30661726 -0.05421388 0.04852897 0.42376566 0.12411767 -0.36447453
0.38013917 0.15170318 0.43236947 0.22427928 -0.4044976 -0.34592456 0.17842764 -0.32714272
-0.026126951 0.13552737 0.03906694 -0.2937801 -0.1283459 0.26058233 -0.3929016 -0.40514946
0.24389964 0.22150874 0.0016682446 -0.24079901 -0.23012398 0.4172858 -0.14317676 -0.38447228
-0.27970862 0.11637783 0.17085725 0.3778417 -0.060239375 0.18079108 0.23295754 0.4145593
0.37524205 -0.09305319 -0.17956612 -0.033883035 -0.181148 0.07624948 -0.34075335 0.3221749
-0.36245692 0.15032691 0.41992897 0.14340156 -0.18081549 0.3667156 -0.4273715 0.27193576
-0.17311233 0.16412371 0.025367498 0.35164988 0.0141586065 -0.41484258 -0.37481266 0.40141064
-0.11987543 -0.43391833 0.15910816 -0.065876365 -0.09808236 0.29853064 -0.21098107 -0.16139305
0.05339247 0.08121812 0.046767205 -0.41943264 -0.43662837 -0.014568567 -0.050379544 0.1741367
00000000: 58c6 6b3e b033 783d 44cd 443e 840a 6a3e
00000010: d012 4b3e cc78 793e 5455 af3e f452 d73e
00000020: 6387 68be 9cc5 19be 647d ac3e 00a5 82be
00000030: bc17 803e 78a0 cb3d 1028 b1bc cc47 b5bd
00000040: b2e9 8a3e a0ad 643c a8b9 413e 4c71 143e
00000050: 0007 6cbc ec44 c53e 107d 353e a442 eabd
00000060: fded e1be a42a 233e 087b bd3e 60e2 3d3d
00000070: 5836 433e 1736 94be d469 283e 78c3 943e
00000080: e4a3 523e b670 7cbe e8f2 153d 803d a9bc
00000090: 34b7 94bd 4d08 b0be b02a 2a3d f379 acbe
000000a0: c489 25be 8514 68be bc26 0cbe 0e09 9fbe
000000b0: 3f3b e3be f080 5f3d 98dd c23e ca2b 76be
000000c0: 8c3c 1b3e c6e3 ba3e 5658 93be fc9a 6c3e
000000d0: d160 dfbe 4a36 9c3e 10d3 d13d 9f04 83be
000000e0: 5895 bd3e 0a07 8cbe 5849 023e 50c2 a83e
000000f0: f8c4 c73d 38a8 3e3d 2606 863e 1085 4fbd
00000100: b256 95be be11 44be 393a 92be b229 c3be
00000110: c02f 1ebe f07d 2abd 66f5 8ebe 1e08 27be
00000120: 40b9 6f3d d44b 5f3e 602c 4c3e eeca b8be
00000130: 6498 84be 340a a6bd 1080 c0bd 6aef c8be
00000140: 4e3b bcbe 503e 813d 545b 1c3e 06cc bebe
00000150: 3049 b2bd 82e0 c0be d72d e2be ec23 9dbd
00000160: 24d3 3d3e 2d1a acbe 9666 abbe 32a7 a03e
00000170: 2695 a2be 6be2 c7be 80b1 bb3b 006a a93d
00000180: 205c f13c 2ce1 0e3e e220 38be 98b9 c5bd
00000190: cc1c 08be 8006 9b3e 2ebd 843e 64fd 01be
000001a0: 424f 8d3e 109b fe3d 088a 8d3e 344f bdbe
000001b0: d479 5d3e 2ef3 3dbe 0770 5dbe 001a a23a
000001c0: 248a 6d3e 4008 f5bd 6c84 0b3e b05c 843d
000001d0: d8df 9abe db2b 5dbe 8835 afbe b84d 1f3e
000001e0: 88e7 123e e04e b9bc 20e8 f8bc 3aa7 c2be
000001f0: 2c7c 83bd 4030 5c3d 7c12 2bbe d801 e4be
00000200: de81 8d3e f630 c93e 7629 a53e 98cb 183d
00000210: 9096 71bd af17 92be 7a1a ddbe 1424 debe
00000220: 2427 ad3e e467 043e ec44 573e d8c6 87bd
00000230: 62f0 b23e 8c7f 043e 7000 f73d ec13 c83e
00000240: 8084 603e e0ab 0f3e 4023 39bc 94a3 b23e
00000250: 50fe 73bd 6a33 bb3e b81f cc3e ca73 8f3e
00000260: 20e8 463e d226 07be 2650 debe c4dc 11be
00000270: 6998 bcbe aea5 d0be f9df d7be fae7 8e3e
00000280: c5ba c4be aead 2dbe 30a4 f33d 20f8 fd3c
00000290: 6ce5 8cbd 3230 ac3e 2a79 dd3e 104f 4d3d
000002a0: e825 143d ca15 0abe c266 37be a05e 7e3e
000002b0: eca6 b93e fa57 de3e 4c4d b83e 7e91 8b3e
000002c0: 17d7 9dbe c492 73be f0fc 9cbe 600f 5ebd
000002d0: 50c6 463d d0f7 d83e 6831 fe3d 689c babe
000002e0: 9aa1 c23e 1458 1b3e 885f dd3e 78a9 653e
000002f0: 4f1a cfbe 061d b1be bcb5 363e 407f a7be
00000300: 3008 d6bc b0c7 0a3e a804 203d 586a 96be
00000310: 1c6d 03be 0c6b 853e 662a c9be c06f cfbe
00000320: d4c0 793e 30d3 623e 00a9 da3a 0494 76be
00000330: 9fa5 6bbe 7ca6 d53e ee9c 12be 8dd9 c4be
00000340: f835 8fbe 8057 ee3d 34f5 2e3e 7874 c13e
00000350: 90bd 76bd 4c21 393e 6c8c 6e3e 1e41 d43e
00000360: ba1f c03e ac92 bebd 2ee0 37be f0c8 0abd
00000370: dc7e 39be b028 9c3d 3977 aebe 1cf4 a43e
00000380: f493 b9be 4cef 193e ee00 d73e dcd7 123e
00000390: b227 39be 26c2 bb3e 70d0 dabe 2a3b 8b3e
000003a0: 5c44 31be 0c10 283e 80cf cf3c 740b b43e
000003b0: 80f9 673c 3f66 d4be 72e7 bfbe b285 cd3e
000003c0: 4081 f5bd 8b2a debe 40ed 223e 30ea 86bd
000003d0: 68df c8bd 02d9 983e 6c0b 58be 3844 25be
000003e0: 10b2 5a3d b055 a63d f88e 3f3d e0bf d6be
000003f0: c18d dfbe 00b1 6ebc c85a 4ebd e450 323e

head.write_net.bias f4 [150]
-0.16430166 0.18361712 0.2036323 -0.33768082 0.39910918 -0.16678691 -0.11713806 -0.1255191
0.43863887 -0.20732562 -0.11774811 0.19920856 0.29592413 0.09632641 -0.28087282 0.42530233
-0.028706908 -0.34415346 -0.009866089 -0.14821792 -0.23830108 -0.00382635 0.04825729 0.2102316
0.4454428 0.22364867 0.043787837 0.30144894 0.34282315 0.20912415 0.003099829 0.24095541
0.10586816 0.39669812 0.4195392 -0.11331862 -0.122807145 -0.38539436 -0.21693085 -0.35987288
-0.27592516 0.09071362 0.41367245 0.17589581 -0.20171288 -0.25541744 0.016812801 -0.20771405
0.4240207 -0.052017123 0.069303036 -0.43008226 -0.2700202 -0.33313125 0.3235684 0.26537293
-0.16396546 0.15844995 0.30956197 -0.15936694 -0.31109673 -0.24345544 0.25958824 -0.4313111
0.2542252 -0.42978206 -0.16539177 0.006855279 -0.24079192 0.28915304 -0.050905943 0.27216703
-0.23448378 -0.28261524 0.4239611 0.036174446 -0.09781727 0.39499098 -0.25664702 -0.061085492
0.16594177 -0.07420573 0.19218701 -0.12760359 0.12150037 -0.121153 -0.09010264 0.33964723
0.12590986 -0.18758023 0.28077757 0.03065291 -0.00050598383 0.01574272 0.36662757 -0.11067307
0.27257186 0.11231059 0.3221342 0.21947354 0.2713799 -0.41321507 -0.31919736 -0.30382875
-0.18970692 -0.17882529 -0.036238045 -0.40639073 -0.37286878 0.31918132 0.043228805 -0.278176
0.23499644 -0.36820593 0.23561847 0.32061517 0.19682872 -0.1397745 0.17634583 -0.08725396
-0.24933901 0.3737722 0.26136565 -0.100497305 0.072221756 0.28943145 0.38331813 -0.27972627
-0.10652435 0.26811868 -0.103192925 -0.09337118 -0.13347861 0.17754817 -0.25168175 -0.1743812
0.2821154 -0.1706565 0.15601665 0.28025514 -0.32353485 -0.052265972 -0.07089889 -0.105571955
-0.24321143 0.34250844 0.16688251 0.18811446 0.27009726 0.22973537
00000000: b23e 28be 2006 3c3e fc84 503e 80e4 acbe
00000010: 0a58 cc3e 30ca 2abe 14e6 efbd 1488 00be
00000020: 4695 e03e 2b4d 54be ec25 f1bd 54fd 4b3e
00000030: 5e83 973e c846 c53d 90ce 8fbe 3ac1 d93e
00000040: c02a ebbc e234 b0be 60a5 21bc 70c6 17be
00000050: 3305 74be 80c3 7abb 70a9 453d f446 573e
00000060: 1411 e43e 2804 653e e05a 333d 8457 9a3e
00000070: 8486 af3e a424 563e 8026 4b3b 04bd 763e
00000080: 68d1 d83d 041c cb3e d8cd d63e 9813 e8bd
00000090: 5082 fbbd 6952 c5be 1f23 5ebe 4241 b8be
000000a0: 1046 8dbe 10c8 b93d e0cc d33e 081e 343e
000000b0: d28d 4ebe 13c6 82be 00bb 893c feb2 54be
000000c0: 3e19 d93e e80f 55bd c0ee 8d3d be33 dcbe
000000d0: 1640 8abe 2e90 aabe c2aa a53e f6de 873e
000000e0: 90e6 27be b440 223e e87e 9e3e 1631 23be
000000f0: 1248 9fbe 624c 79be c0e8 843e cfd4 dcbe
00000100: ce29 823e 650c dcbe 765c 29be 40a2 e03b
00000110: 2892 76be de0b 943e c082 50bd 7a59 8b3e
00000120: 841c 70be f2b2 90be 6e11 d93e a82b 143d
00000130: 6c54 c8bd 423c ca3e 3d67 83be c834 7abd
00000140: a4ec 293e 2cf9 97bd accc 443e 84aa 02be
00000150: 30d5 f83d 101f f8bd bc87 b8bd 3ee6 ad3e
00000160: 84ee 003e 0815 40be 14c2 8f3e d01b fb3c
00000170: 00a4 04ba e0f6 803c 9cb6 bb3e 90a8 e2bd
00000180: 8a8e 8b3e 1803 e63d c6ee a43e acbd 603e
00000190: 4ef2 8a3e ed90 d3be d66d a3be 718f 9bbe
000001a0: 8842 42be fa1d 37be 586e 14bd 7212 d0be
000001b0: a8e8 bebe bc6b a33e b010 313d 166d 8ebe
000001c0: e8a2 703e 7d85 bcbe f845 713e ac27 a43e
000001d0: 788d 493e 0c21 0fbe 0094 343e 34b2 b2bd
000001e0: ba52 7fbe 125f bf3e b8d1 853e 88d1 cdbd
000001f0: 00e9 933d 5c30 943e 4642 c43e 4838 8fbe
00000200: 7029 dabd da46 893e d056 d3bd 6439 bfbd
00000210: 9eae 08be 30cf 353e 6edc 80be fc90 32be
00000220: 6e71 903e 94c0 2ebe d4c2 1f3e 9a7d 8f3e
00000230: 5ca6 a5be d814 56bd 7033 91bd 1c36 d8bd
00000240: 6b0c 79be 445d af3e 40e3 2a3e 14a1 403e
00000250: 304a 8a3e c03f 6b3e

out_net.weight f4 [1, 155]
-0.021073721 -0.07044694 -0.0013096622 0.045241755 0.0008170008 0.031122182 0.07551442 0.024898272
0.042240694 -0.0147663755 0.07603653 0.026137587 -0.056365885 0.019353606 0.06254605 0.007607219
0.0035386977 0.0021392761 -0.031422876 -0.024483774 0.00789517 -0.050422754 -0.0020421227 0.039755594
0.0680932 -0.04491205 -0.01215283 0.06847235 0.03601914 -0.056000806 0.020517565 0.0525693
0.03852667 0.03223748 0.055721123 0.06868784 -0.0027755997 -0.056533314 0.030850856 0.03323313
0.02180836 -0.07537022 -0.046461973 0.011722281 -0.080752015 -0.016379867 0.07115115 0.009592149
0.02534014 0.005517572 0.06179828 0.0024193658 -0.005060929 0.05183464 0.076033175 0.07680055
-0.017806763 -0.024403373 0.052645497 -0.0690766 -0.06695828 0.042055022 0.016883636 0.02535162
-0.011518439 0.047298193 -0.049456 0.016188547 -0.07167729 -0.023344273 -0.057314448 0.06948987
-0.07311312 -0.025483113 0.018122619 -0.045472007 0.033550918 0.041135974 -0.06465316 -0.06397937
0.012213031 0.003707921 0.0090164775 -0.0416137 0.01969226 -0.070829324 -0.013892277 -0.031340666
0.05095421 -0.032201976 0.009603798 -0.044582937 0.06816299 -0.01566164 -0.04908879 -0.0089288475
-0.051457167 -0.0678151 0.0046649035 0.054469492 0.02049645 0.06442665 0.06666634 -0.050999187
-0.010358097 -0.0763624 0.030999912 0.022321394 -0.011248911 0.037101187 0.049783744 0.076840915
0.05873796 0.06592989 0.057564884 -0.056180805 -0.022689495 0.025988238 -0.07908651 0.048094325
-0.031547796 -0.034108892 0.057605274 0.07155271 0.08021989 -0.025788803 0.008663975 0.02212843
-0.034998186 -0.06418769 -0.06876325 -0.06590463 0.05930123 0.03337395 0.053562235 -0.016498912
-0.01512347 0.036844812 0.00089617394 -0.025622452 0.065598845 0.047259815 -0.06829758 0.01759628
-0.04628147 -0.023198973 0.034229524 -0.041749563 -0.021805547 0.017194238 -0.008458664 -0.0043798224
-0.03579165 -0.006542668 0.05735133
00000000: cca2 acbc 7c46 90bd f9a8 abba 6b4f 393d
00000010: ff2b 563a f2f3 fe3c 4ea7 9a3d 76f7 cb3c
00000020: 9404 2d3d abee 71bc 0ab9 9b3d 7e1e d63c
00000030: eadf 66bd 748b 9e3c 2518 803d fa45 f93b
00000040: 7fe9 673b 1933 0c3b 46b5 00bd 3292 c8bc
00000050: be5a 013c 1788 4ebd 22d5 05bb c3d6 223d
00000060: 7374 8b3d b3f5 37bd aa1c 47bc 3b3b 8c3d
00000070: ce88 133d 1a61 65bd 7414 a83c e852 573d
00000080: 24ce 1d3d 730b 043d d53b 643d 36ac 8c3d
00000090: d6e6 35bb 7a8f 67bd efba fc3c 761f 083d
000000a0: 72a7 b23c b45b 9abd e94e 3ebd cf0e 403c
000000b0: 5061 a5bd 122f 86bc b2b7 913d 6428 1d3c
000000c0: 2096 cf3c c0cc b43b 3120 7d3d 398e 1e3b
000000d0: 26d6 a5bb 8f50 543d 48b7 9b3d 9b49 9d3d
000000e0: 7ddf 91bc 95e9 c7bc cea2 573d 0878 8dbd
000000f0: 6c21 89bd e341 2c3d 8d4f 8a3c 33ae cf3c
00000100: d6b7 3cbc c0bb 413d 6092 4abd d89d 843c
00000110: 8bcb 92bd 7d3c bfbc 8ec2 6abd b450 8e3d
00000120: 55bc 95bd f6c1 d0bc e375 943c db40 3abd
00000130: b06c 093d 327e 283d e068 84bd 9e07 83bd
00000140: 2a19 483c 9700 733b d9b9 133c 2173 2abd
00000150: aa51 a13c f70e 91bd 6f9c 63bc 125f 00bd
00000160: 5db5 503d 38e6 03bd 4059 1d3c 999c 36bd
00000170: 0a99 8b3d d74c 80bc 5411 49bd 4d4a 12bc
00000180: c0c4 52bd a5e2 8abd 0cdc 983b 671b 5f3d
00000190: 2ce8 a73c 1ff2 833d 5d88 883d 86e4 50bd
000001a0: 02b5 29bc e463 9cbd 87f3 fd3c 5bdb b63c
000001b0: 5a4d 38bc 6af7 173d 0aea 4b3d c55e 9d3d
000001c0: 3797 703d 4006 873d 28c9 6b3d d81d 66bd
000001d0: 52df b9bc 49e5 d43c 1cf8 a1bd 8efe 443d
000001e0: 4338 01bd c4b5 0bbd 82f3 6b3d 3a8a 923d
000001f0: 534a a43d 0a43 d3bc 58f3 0d3c ae46 b53c
00000200: 425a 0fbd d674 83bd bfd3 8cbd 02f9 86bd
00000210: d9e5 723d 1fb3 083d 1364 5b3d ba28 87bc
00000220: 6ec8 77bc 96ea 163d 37ed 6a3a 2de6 d1bc
00000230: b058 863d 8293 413d 9adf 8bbd 1326 903c
00000240: a491 3dbd c60b bebc 4234 0c3d 9701 2bbd
00000250: 8ca1 b2bc eeda 8c3c 3596 0abc 9d84 8fbb
00000260: 449a 12bd e163 d6bb 3ae9 6a3d
