Weight/mann.pth (torch, 11463 bytes, 8 tensors)

controller.controller_net.weight f4 [5, 22]
0.21240757 0.065675385 0.07993258 0.022214886 -0.15618724 0.033260915 -0.030512905 -0.16640729
0.052273344 -0.066255316 0.0094455285 -0.182193 -0.043333475 0.20769666 -0.12859163 0.027484478
-0.14135917 -0.028352972 0.012729755 -0.011922994 -0.16791442 -0.1434601 0.064715296 0.12894489
-0.03854106 -0.14998493 -0.20113768 0.16495612 0.14596665 0.017243259 -0.16910128 0.07845159
0.06414781 0.008713247 0.19899902 -0.010742718 -0.016672326 0.058911793 -0.045630258 -0.18188065
0.028213026 -0.095629886 -0.1617054 0.13325565 0.003905759 0.12610261 0.099255785 -0.040275395
-0.040210314 0.13411558 -0.036492124 -0.050439864 0.010198507 -0.048223812 -0.14663129 0.033234507
-0.05784818 0.0010852749 0.041933343 -0.18023254 0.20047988 -0.054809686 0.034052417 -0.15800987
-0.030644247 0.1843086 -0.2019598 0.09183741 0.16079473 0.1035819 -0.061053146 -0.042854767
0.11168811 -0.21747811 -0.18962069 -0.07187312 -0.20683573 0.17949754 0.20862752 -0.14798582
-0.011799469 -0.1953775 0.16352312 -0.010910487 0.12908816 -0.18344349 -0.016348973 0.107389346
0.05357274 0.068201065 -0.15251198 -0.09258622 0.07092786 0.122764915 0.1320661 -0.048530214
-0.10324483 -0.033515096 0.1299979 -0.11650246 0.02999099 -0.093448326 -0.07391363 -0.09603423
0.0069266628 0.06541346 -0.054889057 0.11658529 -0.018168148 0.0985158
00000000: 5f81 593e d180 863d b1b3 a33d fefb b53c
00000010: 8cef 1fbe 993c 083d 33f6 f9bc ac66 2abe
00000020: 931c 563d deb0 87bd 6bc1 1a3c cd90 3abe
00000030: 717e 31bd 6fae 543e 86ad 03be 2127 e13c
00000040: 75c0 10be 7e44 e8bc 7690 503c a958 43bc
00000050: c2f1 2bbe 34e7 12be 7489 843d 210a 043e
00000060: 3bdd 1dbd a695 19be 09f7 4dbe 42ea 283e
00000070: 4878 153e bc41 8d3c e328 2dbe 3aab a03d
00000080: ed5f 833d 02c2 0e3c 66c6 4b3e 3a02 30bc
00000090: 6794 88bc 7e4d 713d cbe6 3abd ec3e 3abe
000000a0: 011f e73c 9ad9 c3bd 1a96 25be 2b74 083e
000000b0: c3f7 7f3b 0b21 013e 9e46 cb3d d0f7 24bd
000000c0: 92b3 24bd 9855 093e c478 15bd 089a 4ebd
000000d0: a417 273c 5586 45bd 8326 16be e820 083d
000000e0: 37f2 6cbd c83f 8e3a 4cc2 2b3d e18e 38be
000000f0: 994a 4d3e 1f80 60bd 8c7a 0b3d 57cd 21be
00000100: a509 fbbc 65bb 3c3e 8dce 4ebe 4115 bc3d
00000110: 60a7 243e bf22 d43d dd12 7abd 7b88 2fbd
00000120: bcbc e43d 95b2 5ebe ed2b 42be 3732 93bd
00000130: bfcc 53be 34ce 373e 74a2 553e 9889 17be
00000140: 8f52 41bc 0a11 48be 9b72 273e e6c1 32bc
00000150: b02f 043e 9cd8 3bbe 48ee 85bc f2ee db3d
00000160: 176f 5b3d 00ad 8b3d 1a2c 1cbe d89d bdbd
00000170: a042 913d 2c6c fb3d 563c 073e 9ec7 46bd
00000180: 0772 d3bd 2047 09bd 2b1e 053e d798 eebd
00000190: aaaf f53c d661 bfbd 0760 97bd 98ad c4bd
000001a0: 0ff9 e23b 7ef7 853d 59d3 60bd 45c4 ee3d
000001b0: 5ed5 94bc a7c2 c93d

controller.controller_net.bias f4 [5]
0.20412141 0.0050597405 0.0023966846 0.10641887 -0.0006178581
00000000: 3405 513e 2ecc a53b b211 1d3b 23f2 d93d
00000010: c1f7 21ba

controller.gate_net.weight f4 [1, 5]
0.43552637 0.23959029 -0.0030817986 -0.14456996 -0.37288967
00000000: 50fd de3e 2857 753e 00f8 49bb 260a 14be
00000010: 65eb bebe

head.read_net.weight f4 [150, 5]
0.14568597 -0.5225649 0.05911263 0.42567956 0.14653637 0.3498933 -0.09682418 0.09682249
-0.34278637 0.3659571 -0.18589962 -0.34714124 -0.47222263 0.3582637 -0.26305032 0.21838176
-0.20537527 -0.4053317 0.38987422 0.13346086 0.27247527 0.5339715 0.26433885 0.18233038
0.36228698 -0.3729755 -0.21694234 0.3771866 0.315576 -0.15592282 -0.18533067 0.16951211
-0.12894525 0.07679904 -0.3959321 0.4547855 -0.12663712 0.3127919 0.37808818 0.21328583
-0.11841681 -0.26793852 -0.26582775 0.36057243 -0.23981126 -0.13623998 -0.100686595 -0.027947288
-0.2596044 0.20407453 -0.22882345 -0.2394694 -0.07240888 0.50446075 0.2944559 0.28511247
0.23069204 -0.38584548 0.4264244 0.23893751 -0.19444796 -0.05737181 -0.2885106 0.35062045
-0.09147645 -0.26759538 0.124435194 0.23768425 -0.20162521 -0.18763103 0.050449066 0.3238993
0.33219025 -0.045906458 -0.063045055 -0.025980081 0.41410667 -0.08711401 -0.34550977 -0.30891523
0.42859164 0.042947456 0.16547129 0.4072917 0.43157047 0.34546888 0.15867384 0.1543113
-0.41217917 -0.17591251 -0.5987692 0.23290844 0.11829009 -0.050264653 0.22144721 0.49267498
-0.49449518 0.11739298 0.1950362 0.06362064 0.33688858 -0.37142083 -0.048491955 0.19341376
0.16923882 -0.16225791 0.14311737 -0.18430588 0.10031051 -0.1774396 -0.14489953 -0.050750792
-0.2884664 0.14795761 0.4322299 -0.16587856 0.0910768 -0.3906873 -0.16436797 0.118473
-0.12207136 -0.15570097 -0.21863699 -0.1455523 0.3485061 -0.3091558 -0.23301332 0.28546152
-0.076248415 0.12908953 0.11539242 0.19636308 0.2488408 -0.40204138 -0.2903449 -0.42320266
0.02195592 0.12929282 -0.24205108 -0.26530007 0.23683104 0.18269509 0.330439 0.47460344
0.31152683 -0.114050806 -0.53171307 -0.14671665 -0.2767408 0.06698648 0.30158827 0.1929637
-0.2877928 0.46344236 -0.12913725 0.018813927 0.21139643 -0.098179445 0.30537948 -0.24739452
-0.21135893 0.065820664 -0.27397582 0.118645504 0.37362802 0.37534645 -0.082618296 -0.39781576
0.19947103 0.39520282 -0.048944913 -0.1449242 -0.18989906 -0.21943392 -0.14362332 -0.38132927
0.09132519 -0.0016544451 -0.44359803 0.13210721 0.1213999 0.18140012 -0.121929206 0.13269107
-0.42530444 -0.28249523 0.26569209 -0.17979541 -0.4554486 -0.10801076 -0.28828934 0.06889078
-0.11901498 -0.29530168 -0.008296588 -0.046063926 0.33028737 -0.01581504 0.009956618 0.045252644
0.11922856 0.074304946 -0.51317275 0.20768268 -0.38421932 -0.11239955 0.062042616 0.20192932
0.20853403 -0.17873739 0.49839258 -0.23423888 -0.33248508 0.36055732 -0.30495733 -0.16625458
-0.020479467 0.08555992 -0.3200877 -0.16423535 0.090657085 0.53606373 0.42218938 0.08429581
-0.4087216 0.14707597 -0.15984184 -0.11282553 0.07740113 -0.2567835 0.24647626 0.4036771
-0.35051286 -0.29040167 -0.36942407 -0.28947738 -0.08055431 0.018319868 -0.17088966 -0.42191398
-0.47628933 0.15513113 -0.055766474 -0.48722702 -0.40340084 0.21788436 0.2969706 0.4998921
0.17366557 0.22245331 -0.21262613 -0.13664755 0.32350862 0.3824779 -0.39755288 -0.012742723
00000000: b42e 153e d0c6 05bf 1620 723d acf2 d93e
00000010: a10d 163e 3725 b33e c14b c6bd df4a c63d
00000020: b281 afbe bb5e bb3e 785c 3ebe 7fbc b1be
00000030: 2ac7 f1be 576e b73e 88ae 86be 789f 5f3e
00000040: e54d 52be a387 cfbe 989d c73e f7a9 083e
00000050: e181 8b3e 5bb2 083f 6c57 873e d1b4 3a3e
00000060: ae7d b93e a5f6 bebe 2226 5ebe 9a1e c13e
00000070: 2d93 a13e 3baa 1fbe 53c7 3dbe 9594 2d3e
00000080: 390a 04be d148 9d3d 9db7 cabe a5d9 e83e
00000090: 29ad 01be 4326 a03e c694 c13e 9a67 5a3e
000000a0: 8384 f2bd 3d2f 89be 931a 88be f39c b83e
000000b0: 1591 75be 7e82 0bbe c634 cebd b6f1 e4bc
000000c0: deea 84be eaf8 503e b250 6abe 7737 75be
000000d0: 1b4b 94bd 5724 013f ecc2 963e 43fa 913e
000000e0: 893a 6c3e 8a8d c5be 4d54 da3e 09ac 743e
000000f0: 5e1d 47be b4fe 6abd a9b7 93be 8684 b33e
00000100: 0158 bbbd 4302 89be e1d7 fe3d 8063 733e
00000110: d776 4ebe 5922 40be aea3 4e3d 21d6 a53e
00000120: d714 aa3e 6908 3cbd c41d 81bd 2ed4 d4bc
00000130: ca05 d43e d468 b2bd a8e6 b0be 232a 9ebe
00000140: 5d70 db3e ace9 2f3d 4e71 293e 8a88 d03e
00000150: cef6 dc3e 4ce1 b03e 657b 223e c803 1e3e
00000160: 2609 d3be 6922 34be f048 19bf 8d7f 6e3e
00000170: 1342 f23d 4fe2 4dbd 0fc3 623e e53f fc3e
00000180: 792e fdbe bb6b f03d 92b7 473e 8a4b 823d
00000190: a97c ac3e df2a bebe 809f 46bd 420e 463e
000001a0: f14c 2d3e f026 26be 5c8d 123e aeba 3cbe
000001b0: 996f cd3d bab2 35be 8b60 14be 10e0 4fbd
000001c0: deb1 93be 3382 173e 3d4d dd3e 12dc 29be
000001d0: 7986 ba3d 2a08 c8be 1450 28be f9a1 f23d
000001e0: 8d00 fabd 1370 1fbe 60e2 5fbe aa0b 15be
000001f0: 646f b23e ab49 9ebe 0b9b 6ebe 0328 923e
00000200: 2128 9cbd 0c30 043e dc52 ec3d 6713 493e
00000210: 1fd0 7e3e 5ed8 cdbe 16a8 94be 05ae d8be
00000220: e7dc b33c 5665 043e 3ddc 77be 69d5 87be
00000230: d683 723e 6c14 3b3e 4d2f a93e 39ff f23e
00000240: 7280 9f3e 7893 e9bd 591e 08bf e43c 16be
00000250: f8b0 8dbe 3530 893d c769 9a3e 4798 453e
00000260: 9459 93be 5148 ed3e 8e3c 04be aa1f 9a3c
00000270: 4e78 583e 4e12 c9bd b35a 9c3e fd54 7dbe
00000280: 7a6e 58be fccc 863d 8f46 8cbe 6afc f23d
00000290: 2c4c bf3e 692d c03e c833 a9bd 82ae cbbe
000002a0: 2242 4c3e 0658 ca3e 767a 48bd 0267 14be
000002b0: e674 42be 49b3 60be fe11 13be 973d c3be
000002c0: b408 bb3d f7d9 d8ba 481f e3be 1d47 073e
000002d0: 83a0 f83d f4c0 393e 05b6 f9bd 2be0 073e
000002e0: 81c1 d9be 37a3 90be cb08 883e 4a1c 38be
000002f0: 8f30 e9be bf34 ddbd a99a 93be 9c16 8d3d
00000300: 20be f3bd c831 97be 6aee 07bc 87ad 3cbd
00000310: 6d1b a93e 8b8e 81bc 1521 233c d65a 393d
00000320: 1a2e f43d 312d 983d 4a5f 03bf c5aa 543e
00000330: 65b8 c4be bc31 e6bd 6620 7e3d 8fc6 4e3e
00000340: f289 553e ef06 37be 502d ff3e 51dc 6fbe
00000350: 7c3b aabe f89a b83e 5e23 9cbe a43e 2abe
00000360: 8ec4 a7bc 0a3a af3d 89e2 a3be 502d 28be
00000370: 6caa b93d 793b 093f 3529 d83e 48a3 ac3d
00000380: f543 d1be 159b 163e 94ad 23be 1211 e7bd
00000390: 7c84 9e3d 2079 83be 4664 7c3e c4ae ce3e
000003a0: 6c76 b3be 87af 94be 2725 bdbe 6136 94be
000003b0: a8f9 a4bd 8c13 963c b3fd 2ebe 1c05 d8be
000003c0: 32dc f3be b2da 1e3e 636b 64bd d275 f9be
000003d0: 8e8a cebe 141d 5f3e 880c 983e dbf1 ff3e
000003e0: 63d5 313e cdca 633e aaba 59be 56ed 0bbe
000003f0: eca2 a53e 25d4 c33e 0d8c cbbe dbc6 50bc

head.read_net.bias f4 [150]
-0.337669 0.27954474 0.17078696 -0.19123577 0.102878086 -0.097880684 -0.11215161 0.6236805
0.38269964 -0.17956832 0.45132887 0.47575584 0.018996162 0.052622676 -0.40982333 0.057098214
0.24461971 -0.114441775 -0.45455778 0.518214 0.30698347 0.45936322 -0.5919895 -0.112472534
-0.28117305 0.4353053 0.17331126 -0.4041218 0.5248003 0.41802156 0.19520105 0.20846693
0.4968127 0.50488913 0.2508575 -0.25123346 -0.05997686 0.22770293 -0.22967178 -0.38555595
0.35065946 -0.09802754 -0.22373563 0.31252718 -0.46274123 0.08553612 0.28229725 0.22597325
-0.063482195 -0.47967762 -0.1412402 -0.39871287 0.5429046 0.3198887 0.2130695 -0.16706365
-0.36628562 -0.37252834 0.46486276 -0.5032459 -0.46042565 0.25329953 -0.2827232 -0.27532086
0.30927745 0.24453394 0.303265 0.47711986 0.077204734 -0.37589642 -0.009102056 -0.31673482
0.21964738 0.068491 -0.3776047 0.49644673 0.27601779 -0.33074394 0.42560115 0.11882884
-0.15624802 -0.3226226 0.34777176 -0.041629672 -0.31146616 0.01664654 0.44925112 0.28398815
0.057600603 -0.14157099 -0.46248055 0.2488226 0.022429552 0.12260048 0.276913 -0.25699258
0.25689137 -0.21700199 -0.3068122 0.012261358 0.42523697 0.07977178 0.03504692 0.41952404
-0.47348893 0.23473527 0.2832962 -0.2488738 -0.2591337 -0.4731795 -0.23832712 0.28654328
0.46192208 0.024674814 -0.3646544 -0.051954877 -0.06416686 0.17941935 -0.30772248 0.5074052
0.43190968 0.49839178 -0.26128027 -0.113390446 0.24998075 -0.020621844 0.071884066 -0.22420335
0.27237892 0.4048946 -0.16884118 -0.36725977 -0.03841659 0.045353174 0.47064984 -0.06870546
0.45704335 -0.2924186 -0.28663063 -0.3326689 -0.40449193 -0.48015562 0.5478544 0.06581254
0.36279157 0.39215454 -0.30133858 0.25108334 0.34303328 -0.0074577243
00000000: f3e2 acbe 7d20 8f3e c7e2 2e3e 4fd3 43be
00000010: bfb1 d23d ab75 c8bd beaf e5bd 86a9 1f3f
00000020: 35f1 c33e c2e0 37be 9414 e73e 4596 f33e
00000030: d79d 9b3c e08a 573d 5dd4 d1be d1df 693d
00000040: 977d 7a3e 7360 eabd ccbb e8be aca9 043f
00000050: f02c 9d3e a831 eb3e a08c 17bf 0058 e6bd
00000060: eaf5 8fbe 56e0 de3e 8278 313e 0de9 cebe
00000070: 5059 063f ec06 d63e c9e2 473e 5b78 553e
00000080: 3c5e fe3e 6a40 013f 6570 803e aca1 80be
00000090: 4caa 75bd f52a 693e 142f 6bbe 9767 c5be
000000a0: a389 b33e aac2 c8bd f41a 65be 9003 a03e
000000b0: 6bec ecbe 902d af3d 4489 903e 8865 673e
000000c0: f402 82bd 4e98 f5be 45a1 10be 1824 ccbe
000000d0: ccfb 0a3f 74c8 a33e e42e 5a3e bc12 2bbe
000000e0: ca89 bbbe 09bc bebe 7e02 ee3e b9d4 00bf
000000f0: e9bc ebbe 7ab0 813e 18c1 90be dbf6 8cbe
00000100: 9d59 9e3e 1b67 7a3e 8d45 9b3e 0e49 f43e
00000110: 841d 9e3d 7f75 c0be ca20 15bc 112b a2be
00000120: 3eeb 603e 0245 8c3d 6755 c1be 442e fe3e
00000130: 3452 8d3e 4557 a9be 65e8 d93e 895c f33d
00000140: 7bff 1fbe ca2e a5be 240f b23e e083 2abd
00000150: 7e78 9fbe 535e 883c 3e04 e63e e566 913e
00000160: 9cee 6b3d fcf7 10be 40ca ecbe 5acb 7e3e
00000170: 2ebe b73c f615 fb3d 8ac7 8d3e 8894 83be
00000180: 4487 833e c535 5ebe 7d16 9dbe dde3 483c
00000190: a9b8 d93e 635f a33d 5c8d 0f3d dbcb d63e
000001a0: 246d f2be 715e 703e 330c 913e c6d8 7ebe
000001b0: 2cad 84be 9544 f2be 060c 74be cdb5 923e
000001c0: 0d81 ec3e d622 ca3c fbb3 babe a3ce 54bd
000001d0: ea69 83bd b5b9 373e cd8d 9dbe 4fe5 013f
000001e0: 4423 dd3e 352d ff3e 87c6 85be 4039 e8bd
000001f0: f4fa 7f3e 24ef a8bc f437 933d 9095 65be
00000200: 4075 8b3e 584e cf3e b4e4 2cbe 7909 bcbe
00000210: b75a 1dbd 40c4 393d 04f9 f03e 73b5 8cbd
00000220: 9601 ea3e e4b7 95be 40c1 92be 9453 aabe
00000230: 9119 cfbe f5d6 f5be 3040 0c3f bac8 863d
00000240: d1bf b93e 7bc8 c83e 0d49 9abe ff8d 803e
00000250: 0fa2 af3e ed5f f4bb

head.write_net.weight f4 [150, 5]
-0.020096868 0.32133418 0.26141793 0.42855972 -0.09979251 0.16313702 0.38688827 0.2000441
0.12061882 -0.2331119 -0.36510116 0.110580266 0.42227107 0.31925994 -0.24710476 0.21061718
-0.3343996 -0.33385086 -0.40701863 0.031223953 0.19185823 -0.016950548 0.020050436 -0.3281949
0.13453501 0.03665504 -0.36178264 0.22948825 0.36645722 -0.3137222 -0.28377223 0.1183517
0.15211242 -0.17665043 0.41422558 -0.394094 0.058296084 -0.19255558 -0.01980099 -0.20403585
-0.21140453 -0.24970527 0.1590898 -0.23995705 0.038306862 -0.02468443 0.32046098 -0.38653466
-0.14372972 -0.08273506 -0.045198143 -0.3041049 -0.12331244 -0.17608365 -0.1653291 -0.2748499
0.24441588 -0.15780222 0.19138741 -0.24873573 -0.07326016 -0.08500713 0.033703268 0.0724926
0.4331478 0.28652072 -0.35022256 0.42493975 -0.27883148 0.36937088 0.3247046 -0.37308574
-0.37281695 0.2905891 -0.26309708 -0.04449004 -0.38390055 0.3837924 -0.3151594 -0.26903412
-0.055196017 -0.0046590865 0.43692207 -0.36887026 0.17417604 -0.13722241 -0.2837604 -0.40356082
-0.006299764 0.30279773 0.10230744 -0.11796856 0.28801703 0.25777102 0.24223822 0.38303518
0.42304957 -0.17034853 0.43918192 0.409261 0.06747192 -0.2625677 -0.2739275 -0.28120232
0.2366479 -0.34263504 0.14550072 0.04524085 0.2254017 0.39033228 -0.23429745 -0.39658615
-0.27567458 0.26565826 0.28733575 -0.01385206 0.012424409 -0.26151407 -0.03261113 0.41049153
0.09417719 -0.22720872 -0.06624675 0.019669145 0.035039008 0.036135197 -0.04692352 -0.18775666
-0.33677292 -0.34697363 0.43794203 -0.38555008 0.34785587 -0.18337291 -0.06951696 -0.30704635
0.22567886 0.118422866 -0.14864823 -0.20391515 0.016084492 -0.13299641 0.44042695 0.06488097
0.25631666 -0.40481043 -0.2688176 -0.3284379 -0.10413888 -0.022652954 -0.3281878 0.33113718
0.08441728 0.33036232 -0.101468265 -0.15445915 0.030214846 0.36574405 -0.4244548 -0.41663766
-0.15599537 -0.2383829 -0.30980054 0.2879269 -0.3029486 0.0033758283 0.3765415 -0.22980095
0.11086041 0.08663279 -0.20542745 -0.04529947 -0.1313195 -0.25245887 0.1954987 -0.35271555
0.21428543 0.07592225 -0.032192737 0.18173534 0.08220756 -0.1745849 0.28668016 -0.28327894
0.28220326 -0.35518664 0.34770608 0.20872837 -0.22688527 -0.15666881 -0.32283026 0.11789739
-0.26035562 0.03435111 0.3399846 -0.36789566 -0.24565877 0.41509718 0.0026373565 -0.24711211
-0.13928404 0.3269719 -0.17841771 0.07680899 -0.24968287 0.32787162 -0.4449903 0.115082085
0.33515346 0.22360462 0.006126821 -0.36126626 0.34966648 0.407232 -0.40846163 -0.3985925
0.3591001 -0.2733991 0.3786056 0.052561373 -0.09614891 -0.3288742 -0.07449943 0.039798707
-0.28066087 0.049410045 0.22060639 0.051604807 0.43537593 -0.12572902 0.43562812 -0.11172524
-0.38907248 -0.30391708 -0.14776102 0.089588284 0.40406847 0.28324527 0.22098935 -0.38678756
-0.32223493 -0.16264084 0.18372673 -0.051285565 -0.33044434 0.08791232 0.32463175 -0.011865109
-0.31685245 0.018633842 0.42157114 -0.16031855 0.11362159 -0.085178405 0.19011462 0.16539401
00000000: 30a2 a4bc ea85 a43e 92d8 853e 2e6c db3e
00000010: 0460 ccbd 640d 273e 3816 c63e 5cd8 4c3e
00000020: 0007 f73d e3b4 6ebe 8aee babe e877 e23d
00000030: ea33 d83e 0a76 a33e 0809 7dbe 08ac 573e
00000040: 6d36 abbe 80ee aabe bf64 d0be 60c9 ff3c
00000050: 7c76 443e e0db 8abc d040 a43c 2909 a8be
00000060: 8cc3 093e 9823 163d 933b b9be f8fe 6a3e
00000070: 48a0 bb3e 32a0 a0be 984a 91be 6062 f23d
00000080: 5cc3 1b3e dae3 34be 6015 d43e b0c6 c9be
00000090: e0c7 6e3d 4a2d 45be b035 a2bc c6ee 50be
000000a0: 6e7a 58be bdb2 7fbe 70e8 223e 4db7 75be
000000b0: a8e7 1c3d 0037 cabc 7613 a43e dfe7 c5be
000000c0: e22d 13be 0071 a9bd b021 39bd a3b3 9bbe
000000d0: 3c8b fcbd 464f 34be 084c 29be 20b9 8cbe
000000e0: 2848 7a3e e896 21be 10fb 433e 94b4 7ebe
000000f0: 6c09 96bd 3818 aebd 700c 0a3d 0077 943d
00000100: 8cc5 dd3e d8b2 923e 5f50 b3be b491 d93e
00000110: 00c3 8ebe 2e1e bd3e ae3f a63e 1805 bfbe
00000120: dde1 bebe 18c8 943e a9b4 86be 303b 36bd
00000130: 9d8e c4be 7080 c43e 935c a1be d7be 89be
00000140: 3815 62bd 40ab 98bb 40b4 df3e 90dc bcbe
00000150: 345b 323e 0884 0cbe 0b49 91be 869f cebe
00000160: 406e cebb 4e08 9b3e 9086 d13d 8099 f1bd
00000170: f876 933e 90fa 833e 4c0d 783e 301d c43e
00000180: f499 d83e d86f 2ebe 74dc e03e a88a d13e
00000190: b82e 8a3d 466f 86be 3a40 8cbe c0f9 8fbe
000001a0: d453 723e dc6d afbe 24fe 143e 784e 393d
000001b0: b4cf 663e a2d9 c73e aceb 6fbe 570d cbbe
000001c0: 3825 8dbe 5c04 883e ac1d 933e c0f3 62bc
000001d0: c08f 4b3c 2ce5 85be 4093 05bd f22b d23e
000001e0: f8df c03d 67a9 68be 60ac 87bd 3021 a13c
000001f0: 1085 0f3d 8002 143d e032 40bd 4843 40be
00000200: 806d acbe 87a6 b1be f039 e03e d266 c5be
00000210: 2a1a b23e 1cc6 3bbe e85e 8ebd 2e35 9dbe
00000220: 5c18 673e b087 f23d 3e37 18be 22cf 50be
00000230: a0c3 833c 3630 08be a47f e13e 50e0 843d
00000240: f03b 833e 5043 cfbe 76a2 89be 0329 a8be
00000250: c446 d5bd b092 b9bc 3b08 a8be d08a a93e
00000260: f8e2 ac3d 4025 a93e 98ce cfbd 8a2a 1ebe
00000270: 2085 f73c ce42 bb3e 2452 d9be 8851 d5be
00000280: 40bd 1fbe a61a 74be 2d9e 9ebe 286b 933e
00000290: 141c 9bbe 003d 5d3b 0cca c03e f150 6bbe
000002a0: c80a e33d 886c b13d 935b 52be f08b 39bd
000002b0: 9e78 06be 4a42 81be d030 483e 2297 b4be
000002c0: a46d 5b3e 207d 9b3d 88dc 03bd d418 3a3e
000002d0: 705c a83d 62c6 32be bec7 923e f009 91be
000002e0: f27c 903e 06db b5be 8806 b23e e4bc 553e
000002f0: 9d54 68be ca6d 20be 024a a5be 3074 f13d
00000300: 554d 85be c0b3 0c3d 7612 ae3e d25c bcbe
00000310: f98d 7bbe 9e87 d43e 80d7 2c3b f50a 7dbe
00000320: 7aa0 0ebe dc68 a73e 22b3 36be 084e 9d3d
00000330: deac 7fbe cade a73e c5d5 e3be 28b0 eb3d
00000340: 3c99 ab3e 9cf8 643e 80c3 c83b e4f7 b8be
00000350: 7c07 b33e b680 d03e e221 d1be 5114 ccbe
00000360: f8db b73e f8fa 8bbe 98d8 c13e 984a 573d
00000370: b8e9 c4bd 3362 a8be 2893 98bd f803 233d
00000380: c8b2 8fbe 3062 4a3d a4e6 613e 905f 533d
00000390: 98e9 de3e 1cbf 00be a60a df3e 34d0 e4bd
000003a0: 8234 c7be 059b 9bbe aa4e 17be 107a b73d
000003b0: 10e2 ce3e 8605 913e 084b 623e 0509 c6be
000003c0: fafb a4be 528b 26be dc22 3c3e d010 52bd
000003d0: 0030 a9be 600b b43d 2236 a63e e065 42bc
000003e0: 7c3a a2be 00a6 983c 2cd8 d73e 8c2a 24be
000003f0: 70b2 e83d 0472 aebd 68ad 423e 0c5d 293e

head.write_net.bias f4 [150]
-0.36722797 -0.0030694902 -0.12019977 -0.17088947 0.13785774 0.38055933 -0.22925238 -0.0678387
0.26263523 0.042633027 -0.22620496 0.13025415 0.05135572 0.16008002 0.21459872 0.21755022
0.0959689 -0.022696525 0.055900335 -0.3238548 0.01846984 -0.25471953 -0.036120117 -0.37443268
0.24329257 0.19841158 0.22151572 0.28529245 -0.022713006 -0.38929296 -0.116511375 -0.28851062
-0.28329104 -0.11247471 -0.31778738 -0.012296051 -0.24409966 0.33219635 0.3096218 0.27795464
-0.27038068 0.14837837 -0.23002994 0.13207126 0.4391973 -0.40018559 0.24677074 -0.07992101
0.13896179 0.32448876 -0.20687503 -0.009247303 0.013416916 0.08776617 -0.43548787 0.43834835
-0.40259063 -0.34459895 -0.0008780062 0.35108 0.3390221 -0.01924041 -0.130707 0.010161549
-0.34372365 0.26325613 0.26872647 -0.43582907 -0.357688 0.2018584 -0.38459304 -0.42344284
-0.23986787 -0.2870208 0.41465682 0.074364245 0.32756978 0.1597085 0.074341476 0.3193648
-0.41860205 -0.050706387 -0.44005516 0.006301999 0.030592084 -0.20842364 -0.20322365 0.23436362
-0.04565215 0.35055268 0.16792387 0.40285158 0.18502909 0.35522562 -0.28033254 0.2776929
-0.326992 -0.4296815 0.29153156 0.26627207 -0.08867511 0.28853977 0.101824164 -0.2604199
-0.13810611 -0.39366838 -0.0370197 0.35977912 0.063008785 0.08662623 -0.008345991 -0.2070081
-0.22788541 -0.24480653 0.3818897 -0.31407472 -0.24694003 0.13988888 -0.32796323 -0.16655228
0.29776037 -0.3975306 0.39154196 -0.35773864 -0.19810516 -0.12049225 0.2990204 -0.41505077
-0.40780988 -0.18152276 -0.25989398 0.044303924 -0.2784044 0.21219164 -0.39735454 -0.007420063
-0.024042398 -0.3064782 -0.25824478 -0.18723547 0.40565526 0.11288893 -0.113698155 -0.29458806
-0.41277593 0.43008024 0.35217047 0.30960256 0.1613158 -0.35475275
00000000: 4e05 bcbe 8029 49bb 4c2b f6bd a6fd 2ebe
00000010: 942a 0d3e acd8 c23e 23c1 6abe 04ef 8abd
00000020: 2078 863e f89f 2e3d 46a2 67be 5861 053e
00000030: 605a 523d 04ec 233e c4bf 5b3e 7cc5 5e3e
00000040: 588b c43d 10ee b9bc c0f7 643d 4cd0 a5be
00000050: 104e 973c 996a 82be b0f2 13bd a4b5 bfbe
00000060: b021 793e 682c 4b3e 04d5 623e da11 923e
00000070: a010 babc 6851 c7be 849d eebd aab7 93be
00000080: 860b 91be 2459 e6bd 07b5 a2be 6075 49bc
00000090: 43f5 79be a415 aa3e c086 9e3e 1250 8e3e
000000a0: 566f 8abe 80f0 173e f88c 6bbe b03d 073e
000000b0: 78de e03e 20e5 ccbe 78b1 7c3e a0ad a3bd
000000c0: 004c 0e3e 6423 a63e 0cd7 53be 0082 17bc
000000d0: a0d2 5b3c c0be b33d 44f8 debe 326f e03e
000000e0: 5c20 cebe 466f b0be 002a 66ba c2c0 b33e
000000f0: 4e94 ad3e 109e 9dbc 0ed8 05be a07c 263c
00000100: 8cfc afbe 82c9 863e 8496 893e fd24 dfbe
00000110: e222 b7be f8b3 4e3e 61e9 c4be 80cd d8be
00000120: ec9f 75be 64f4 92be e64d d43e 484c 983d
00000130: 3ab7 a73e a08a 233e 5840 983d c883 a33e
00000140: 0253 d6be 80b1 4fbd e94e e1be 0081 ce3b
00000150: 409c fa3c 026d 55be dc19 50be 04fd 6f3e
00000160: c0fd 3abd a47b b33e 3cf4 2b3e 9042 ce3e
00000170: 4478 3d3e 22e0 b53e bf87 8fbe c42d 8e3e
00000180: 7f6b a7be 37ff dbbe a043 953e d054 883e
00000190: 4c9b b5bd 7cbb 933e 3089 d03d c255 85be
000001a0: b06b 0dbe e78e c9be f8a1 17bd f834 b83e
000001b0: c00a 813d 1869 b13d a0bd 08bc eef9 53be
000001c0: cb5a 69be 90ae 7abe 0c87 c33e 67ce a0be
000001d0: d9dd 7cbe 083f 0f3e ccea a7be ae8c 2abe
000001e0: 0c74 983e 2189 cbbe 3078 c83e 8529 b7be
000001f0: 14dc 4abe a4c4 f6bd 3419 993e 8981 d4be
00000200: 75cc d0be 1ae1 39be d310 85be 0878 353d
00000210: 068b 8ebe c448 593e 0e72 cbbe 0024 f3bb
00000220: 90f4 c4bc b6ea 9cbe a938 84be a8ba 3fbe
00000230: 0cb2 cf3e 5032 e73d 94da e8bd 3fd4 96be
00000240: 5e57 d3be 7a33 dc3e b04f b43e 3a84 9e3e
00000250: f82f 253e 27a2 b5be

out_net.weight f4 [1, 155]
0.036149494 0.0010875105 -0.00012257439 0.02121479 0.0043423166 0.033287004 0.0642352 0.059309226
0.05841804 -0.01692232 -0.075059585 0.017950369 -0.05338063 -0.045519702 0.05326297 0.0074191
0.03449833 -0.07895485 -0.007818788 -0.015366675 -0.03791926 0.08887739 0.06528652 0.005701115
0.07914969 0.06549732 0.054368656 0.05641404 -0.023280013 -0.06472589 -0.012859868 0.07835382
0.0254068 0.07835379 0.070679516 0.07631244 0.057357192 0.060051344 -0.04248695 -0.03399253
-0.07495429 -0.002812353 -0.03593547 -0.0023316597 0.07415737 0.02760113 0.013628093 -0.07178132
-0.06388093 0.06316633 -0.032458205 0.071727194 0.044317927 -0.066659704 -0.027494453 0.050613716
0.041969623 0.015685262 0.00018382727 -0.012188002 0.070780754 -0.06693413 0.05060442 -0.020380072
0.008170232 -0.068750836 -0.0738851 0.04531108 -0.029108742 -0.073753126 -0.053547762 -0.05805027
0.05758138 -0.077274434 0.070196584 0.031370427 -0.047288056 0.028189894 0.04749316 0.071680546
0.002444187 -0.035084434 0.02985659 0.06369618 -0.063969254 -0.038897987 -0.04157877 -0.060476907
0.05668544 -0.025520992 -0.06685873 -0.0787199 -0.036718644 0.03372004 0.06375516 -0.021786936
-0.015312023 -0.027639054 0.053109746 -0.0033290612 -0.059163038 -0.002129181 -0.06898821 0.047957107
-0.0027769487 0.036059983 -0.008278711 0.0611896 0.043169748 0.071564905 -0.044864573 0.027902793
-0.06390978 -0.05132487 -0.0618334 0.046827473 -0.05156131 0.04316064 0.033222333 0.0031364805
0.031552408 0.0016176631 -0.0085671125 0.01916663 -0.06756338 -0.03438833 0.0062399204 -0.009275897
-0.016900253 0.050137438 -0.028727569 -0.055261023 0.05084254 -0.03413102 0.042045992 -0.05217796
-0.0071702604 -0.07961809 -0.078371555 0.052790467 0.021855833 -0.070994064 -0.028099392 -0.0040232176
-0.0630104 0.07223723 -0.004781825 -0.0052093845 0.049213573 -0.04509963 -0.030660423 0.03111771
-0.046184387 0.004265677 0.03134952
00000000: 7e11 143d cc8a 8e3a 5087 00b9 a4ca ad3c
00000010: fe49 8e3b f457 083d bf8d 833d 3bee 723d
00000020: c147 6f3d ada0 8abc d7b8 99bd a70c 933c
00000030: a6a5 5abd de72 3abd 462a 5a3d ec1b f33b
00000040: 1f4e 0d3d 15b3 a1bd 601a 00bc 82c4 7bbc
00000050: 3a51 1bbd 5905 b63d f0b4 853d 6bd0 ba3b
00000060: 3c19 a23d 7523 863d abb1 5e3d 6912 673d
00000070: bab5 bebc 028f 84bd 32b2 52bc f877 a03d
00000080: ec21 d03c f477 a03d 6cc0 903d b249 9c3d
00000090: 60ef 6a3d 66f8 753d cc06 2ebd c03b 0bbd
000000a0: a381 99bd 744f 38bb 1231 13bd c2ce 18bb
000000b0: d2df 973d c41b e23c 5d48 5f3c 1602 93bd
000000c0: 01d4 82bd 595d 813d e5f2 04bd b5e5 923d
000000d0: b786 353d e284 88bd 0c3c e1bc 5450 4f3d
000000e0: 57e8 2b3d 617e 803c c2c1 4039 2fb0 47bc
000000f0: 80f5 903d c314 89bd 9546 4f3d 1cf4 a6bc
00000100: 70dc 053c 3dcd 8cbd 1251 97bd 1c98 393d
00000110: 7575 eebc e10b 97bd e654 5bbd 1fc6 6dbd
00000120: 74da 6b3d 0f42 9ebd 3ac3 8f3d 477e 003d
00000130: 1fb1 41bd 7eee e63c 3088 423d 40cd 923d
00000140: a72e 203b b2b4 0fbd cf95 f43c 2573 823d
00000150: 5002 83bd 7f53 1fbd 804e 2abd a2b6 77bd
00000160: fe2e 683d 6611 d1bc 3bed 88bd e637 a1bd
00000170: 4a66 16bd 061e 0a3d 1192 823d 847a b2bc
00000180: 48df 7abc 4c6b e2bc 9b89 593d 612c 5abb
00000190: f154 72bd bb89 0bbb b149 8dbd ac6e 443d
000001a0: 78fd 35bb a2b3 133d 6ea3 07bc f2a1 7a3d
000001b0: c3d2 303d 9f90 923d eac3 37bd 6694 e43c
000001c0: 21e3 82bd 073a 52bd 0545 7dbd 2ace 3f3d
000001d0: f431 53bd 36c9 303d 2414 083d 698d 4d3b
000001e0: 193d 013d c407 d43a 135d 0cbc 5603 9d3c
000001f0: ab5e 8abd c7da 0cbd 3f78 cc3b eff9 17bc
00000200: 6672 8abc ea5c 4d3d 1456 ebbc 6259 62bd
00000210: 4440 503d f8cc 0bbd 6b38 2c3d 8eb8 55bd
00000220: 81f4 eabb cf0e a3bd 4481 a0bd d13a 583d
00000230: 010b b33c 5665 91bd b230 e6bc 32d5 83bb
00000240: 990b 81bd 1df1 933d dbb0 9cbb 7cb3 aabb
00000250: 2c94 493d 64ba 38bd 912b fbbc 91ea fe3c
00000260: d72b 3dbd 18c7 8b3b 5b68 003d
