Weight/mann.pth (torch, 11463 bytes, 8 tensors)

controller.controller_net.weight f4 [5, 22]
000000 05 28 0e 3e 8b a0 82 3c 2f 5a 79 3d 5f 3f 38 3e
       0.13882454 0.015945693 0.06087702 0.17992924
000010 30 65 30 be a0 00 91 3d a1 13 97 bd b2 d7 86 3d
       -0.172261 0.07080197 -0.07376791 0.06584109
000020 36 c6 1f be d0 66 ea 3d dd d1 50 be f9 a5 df 3c
       -0.15602955 0.11445391 -0.20392556 0.027300822
000030 75 16 e4 3a c9 38 07 3e 32 80 2a be 8e f2 3e 3e
       0.0017401712 0.13205256 -0.16650465 0.18647215
000040 45 10 ec bd cb 4a 39 bd 2f 83 6d bd 67 1d 3b 3d
       -0.11526541 -0.045237344 -0.057986435 0.045682337
000050 69 97 a4 b9 d9 ba 79 bd 33 1c a1 3d cc 75 1e be
       -0.00031393327 -0.060969207 0.07866707 -0.15474623
000060 74 66 5c bd 10 8f ce 3d 05 c6 1c 3d 82 05 85 3c
       -0.053808644 0.10085881 0.038274784 0.016237978
000070 37 7d c8 bb 15 a0 26 be 79 5f 10 3e db 61 63 3d
       -0.0061184424 -0.16272004 0.1409892 0.055513244
000080 c7 4e 04 3e 7b b6 4f bd 76 92 b7 bd 6d 8b 50 3e
       0.12920676 -0.050711136 -0.08963482 0.20365687
000090 5a 83 1f bc 29 1c b4 3d 25 27 14 be 90 a6 c5 3c
       -0.0097359065 0.087944336 -0.14468057 0.024127275
0000a0 1d 24 3e 3e 31 14 45 be cd d3 be bd e9 44 11 be
       0.18568464 -0.19245984 -0.093177415 -0.14186443
0000b0 d8 ed 2d 3e 89 25 42 3d 84 91 14 be 8b cd 0b 3e
       0.16985261 0.047399078 -0.14508635 0.13652627
0000c0 83 52 4d be 16 ad 56 3e 04 d8 4f 3d e5 89 bf bb
       -0.20051007 0.20964465 0.050743118 -0.0058452957
0000d0 05 0a 46 be 8b af 34 3e d6 2e 42 3d 40 53 c2 bd
       -0.1933976 0.1764509 0.047407947 -0.09488535
0000e0 47 38 67 3d cd 9b 3e be a1 91 e9 3c f0 d9 2e be
       0.056450155 -0.18614121 0.028511824 -0.17075324
0000f0 66 56 39 3e b3 24 91 bd a7 90 0b be f2 93 17 3d
       0.18099365 -0.07087078 -0.13629399 0.037006326
000100 bc 15 86 bd cc 44 26 be cd d6 4d be 04 be 3e be
       -0.06547114 -0.16237181 -0.20101471 -0.18627173
000110 ac ed a6 3d 71 76 cc bd d0 8b 16 be 48 c6 cf 3d
       0.08150801 -0.099835284 -0.14701772 0.10145241
000120 2b 77 37 3e d3 9a 6a 3b 08 00 05 3d 46 35 ab 3d
       0.17916553 0.0035797849 0.032470733 0.083597705
000130 2f 47 09 bd 5c 65 c6 bb b6 f1 9e 3d 9f b7 11 bd
       -0.03351515 -0.0060545634 0.077609465 -0.035575505
000140 e6 df 41 be b9 0c 40 3d de 6b eb bc 1e 00 4b 3e
       -0.18933067 0.046887133 -0.028737959 0.19824263
000150 39 df 5a be 19 08 10 be dd 8a 0f be db 1d 28 3d
       -0.21374215 -0.14065589 -0.14017816 0.041044097
000160 e8 2b 0a bd f5 a6 c8 3d f1 0d a1 bd 0b 54 99 bd
       -0.03373328 0.097974695 -0.07863987 -0.07486733
000170 59 0f cd 3d 26 2b 85 bd 0b 27 2e be 1c 44 fe 3d
       0.10012693 -0.065023705 -0.17007081 0.124153346
000180 4d 9f ee 3d e8 35 2d 3e 01 d2 3a bd 34 7c a8 3d
       0.11651478 0.16915095 -0.04561043 0.08226815
000190 50 e9 c1 bd ee 6d 19 3e 44 6c 79 bb 3e 89 ba bd
       -0.09468329 0.14983341 -0.0038058916 -0.09108208
0001a0 74 b6 3a be c9 75 98 bc e1 66 67 3d f9 2b d0 bc
       -0.18233663 -0.018610852 0.056494597 -0.025411593
0001b0 19 aa 2c 3d 65 0a 58 bd
       0.042154405 -0.052744288

controller.controller_net.bias f4 [5]
000000 99 ff ca 3a 0f 7f e7 bd 38 71 d5 bd 04 2f 07 3e
       0.0015487551 -0.113035314 -0.104219854 0.13201529
000010 e2 d8 de 3a
       0.0017001892

controller.gate_net.weight f4 [1, 5]
000000 6c 01 62 3e 38 61 3a 3e 9a 08 d4 3e 70 13 01 3d
       0.22070855 0.18201149 0.41412812 0.031512678
000010 6a 97 84 be
       -0.2589677

head.read_net.weight f4 [150, 5]
000000 78 93 7f be 25 b0 0d 3e dd 7b f2 be f3 d9 53 3e
       -0.24958599 0.13836725 -0.47360125 0.2068861
000010 17 8a 47 be 87 0e 5a be e3 2c 22 bd 18 4c 90 be
       -0.19486271 -0.21294604 -0.03959359 -0.28183055
000020 da 72 19 be b9 a1 95 3e d5 b3 4e 3e 86 8c 4d 3e
       -0.14985219 0.29224947 0.20185788 0.20073137
000030 ae 2c f9 3e 78 bc 31 3e 53 b4 50 3e 21 b5 c5 be
       0.486669 0.17357051 0.20381288 -0.38614753
000040 21 ee ec 3e c9 5c 5d bc d3 62 c9 be 6c 72 46 3e
       0.46275428 -0.013510891 -0.3933321 0.19379586
000050 7e 9b da 3e c8 2e cc be 2b bf e8 be 78 a5 9e bd
       0.42696756 -0.3987944 -0.4545835 -0.077464044
000060 72 d6 18 be 07 26 65 3e 31 64 da be 61 0a b1 bd
       -0.14925554 0.22377788 -0.42654565 -0.08644558
000070 e4 ad 32 be 72 95 a0 3e aa 70 57 be 40 2a d3 bd
       -0.17449147 0.31364018 -0.21039072 -0.10310793
000080 e7 f8 c7 3e 23 c6 6e 3c 12 ab 4f 3e ed af db bd
       0.39057085 0.014573607 0.20280102 -0.107269146
000090 95 53 33 bc 1b 69 0c 3f 66 52 f6 be a3 b6 3a 3e
       -0.0109452205 0.5484788 -0.4810974 0.18233733
0000a0 5f 8a 99 be 88 46 06 bf 9a d4 c1 bd 2c 9f 8d 3e
       -0.2998838 -0.5245137 -0.09464379 0.276605
0000b0 06 cc 94 3e bf 22 cf 3e 09 e6 15 3e 52 4d 01 bf
       0.29061908 0.40456197 0.14638533 -0.50508606
0000c0 a5 ae b6 be 98 84 c3 3d e2 e6 9f 3e 69 8e 9d 3e
       -0.35680118 0.095467746 0.31230837 0.30772713
0000d0 ff b9 3f 3e 41 6c 02 bf a2 8f bf be fc 92 c2 3e
       0.18723296 -0.5094643 -0.3741427 0.38002765
0000e0 37 52 49 bd d3 a8 19 3f 0c e0 02 be fc ea 04 3e
       -0.04915067 0.6002323 -0.1278078 0.12980264
0000f0 b4 77 aa 3e 66 d5 cb 3e 4a 12 88 be b7 0c 92 3e
       0.3329445 0.39811248 -0.26576453 0.28525326
000100 8a 08 90 3e 12 74 45 3e 94 50 53 3c b3 a8 d4 be
       0.28131515 0.19282559 0.012897629 -0.41534957
000110 20 d3 aa 3e d0 33 8f 3e a1 d1 55 bd 2d 3d cc be
       0.333642 0.27969217 -0.05220187 -0.39890423
000120 83 96 37 bf aa 57 84 bd 50 e0 8c be 09 07 5d 3e
       -0.7171404 -0.06462033 -0.27514887 0.21584715
000130 3d 3b 19 3e 6f f8 00 bf eb 2e 6a bb f9 a4 ba 3d
       0.14964004 -0.5037908 -0.0035733532 0.09113497
000140 69 44 af 3d 8e 4c 2b 3e 47 5f 0d be dd 17 da bd
       0.0855797 0.16728422 -0.13805877 -0.10649083
000150 7a 70 d8 be ca d0 7c be 15 64 04 bd 96 85 67 bc
       -0.42273313 -0.24689022 -0.03232201 -0.01413097
000160 7c be ab be 77 b8 a6 be 64 5b 17 3e 0f 25 99 3c
       -0.33543766 -0.3256261 0.14780957 0.018694429
000170 e6 02 e0 be 8b a8 e6 3d 74 08 b5 be a2 90 56 3d
       -0.4375221 0.11262616 -0.35358012 0.052384026
000180 ca 2f 13 be ac 48 10 be 04 32 e5 be 35 d8 a4 bd
       -0.14373699 -0.14090222 -0.4476472 -0.08049051
000190 7b a4 c7 be 38 8b ad 3d b4 c6 e2 3e 33 dd 92 be
       -0.38992676 0.084738195 0.44292223 -0.28684387
0001a0 7c 10 21 3d 00 1c 61 3e 6f 9c 22 bd 7d 9a 9f be
       0.03932236 0.21983337 -0.039699968 -0.31172553
0001b0 c0 d8 ba 3c ce 9e a5 3d 7c fc 7e be b3 e5 5e 3e
       0.022808433 0.0808693 -0.24901003 0.21767311
0001c0 eb 78 45 bb a3 5b e0 3d 9b 9b 06 3e c0 a9 8c be
       -0.0030131887 0.10954978 0.13145296 -0.2747326
0001d0 a9 d8 de 3e dc 23 d5 3e 16 a5 63 3e 16 c7 c8 be
       0.43524674 0.4162892 0.22230944 -0.3921439
0001e0 0b 59 cb 3e 61 31 89 bc ba b8 a1 be c7 f7 6b 3e
       0.39716372 -0.016747179 -0.31586248 0.23043738
0001f0 34 59 30 be 8b 7c 63 bc 1d b0 bd be 8b 83 e6 be
       -0.17221528 -0.013884674 -0.37048426 -0.45022234
000200 ab 95 f2 3e 5e 65 23 3d a0 b7 da 3e 95 09 57 3d
       0.47379813 0.039891593 0.4271822 0.052499373
000210 7a 32 d6 be db e3 a8 3c e7 9d ca 3e a0 05 da 3e
       -0.41835386 0.020616462 0.39573595 0.42582417
000220 b9 3a 78 3e 65 9b 5f be bb b6 ce be 73 48 bc 3e
       0.24241151 -0.21836622 -0.40373787 0.36774024
000230 f7 d4 43 3e 2c 1e ae be 32 54 8c 3e ea db 4d be
       0.19124208 -0.34007394 0.27407986 -0.20103422
000240 78 9b bf 3e 79 41 bb bb f5 d8 19 bf f0 c9 26 bf
       0.374233 -0.005714592 -0.60096675 -0.6515188
000250 48 37 a2 bd 93 cb e7 3e 3d 7a d1 be 84 d5 a1 be
       -0.079207 0.45272502 -0.40913573 -0.31608212
000260 68 50 bd be 75 7c 94 be 02 50 a0 3e 27 e4 1d be
       -0.36975408 -0.29001203 0.3131104 -0.15419064
000270 b0 66 b4 3e 10 a0 c6 bd 5b 37 a0 be 9c 72 c2 3d
       0.35234594 -0.09698498 -0.31292233 0.09494516
000280 e7 4d ad bd d0 bb 1b bf 6f fc 0b bf 3e 3d e6 3e
       -0.08462124 -0.60833454 -0.5468206 0.449686
000290 27 97 4f 3e a5 55 27 bd 2a d9 aa be aa 8c af bd
       0.20272504 -0.04085316 -0.33368808 -0.085717514
0002a0 5c 22 a7 bd 45 44 64 3e 50 e5 81 3e 2c bc 13 3e
       -0.081608504 0.22291668 0.25370264 0.1442725
0002b0 5d 3e 0b bf 99 ec 91 3d d1 92 51 3e a1 2d a7 3e
       -0.54392034 0.071252055 0.20466162 0.32652
0002c0 83 f2 8f be 5c aa 97 3c cd 4c 39 be a2 9b 13 be
       -0.2811471 0.01851385 -0.18095703 -0.14414838
0002d0 1e e5 d4 3e 1f a5 2d 3e 17 b0 70 be ca b6 80 3e
       0.41581053 0.1695752 -0.23504673 0.25139457
0002e0 82 6e 93 3d bc 12 a5 3e 85 46 06 be d6 ce e1 be
       0.07198812 0.32240856 -0.13112839 -0.44103116
0002f0 03 15 c8 3e 05 9a fc 3d 06 d8 32 3e cb d1 54 3e
       0.3907853 0.123340644 0.17465219 0.20783155
000300 f8 13 c4 3c 5c fb b5 3e 93 68 b9 be 7e c0 7b be
       0.023935303 0.35543334 -0.36212596 -0.24585149
000310 c0 43 0d 3e c1 17 fe be 80 a7 5e 3d 7c 9e ac 3d
       0.13795376 -0.49627498 0.05435896 0.08428666
000320 07 d7 db 3d 7a f8 f9 bd 21 1c 4b 3e f1 3b 0c be
       0.107343726 -0.12205596 0.19834949 -0.13694741
000330 a1 00 b4 3e 8a 7b 42 be 1d 60 b1 be ee 4d 8e be
       0.3515673 -0.18992439 -0.3464364 -0.2779383
000340 34 4a c8 3e e3 ee be 3e a2 c1 64 be 10 16 ec be
       0.39119112 0.3729163 -0.2233949 -0.46110582
000350 27 08 30 3e 18 13 ba 3e d9 1e 25 be 12 0e 19 be
       0.1719061 0.36342692 -0.16125049 -0.14946774
000360 13 58 6b be 09 44 15 bd 24 9d b6 be 4a 22 2d 3e
       -0.22982816 -0.036441837 -0.35666764 0.16907611
000370 76 94 14 3e 10 d1 78 3e 78 2e 6c 3e cb c3 99 3e
       0.14509758 0.24298501 0.23064601 0.3003219
000380 ba d7 69 bd 18 76 98 3e 07 dd cf 3e d1 91 ab 3e
       -0.0570905 0.29777598 0.40598318 0.33509687
000390 81 d5 de be 91 e1 92 3e f3 e6 5a 3e 30 48 1a bf
       -0.43522266 0.2868772 0.21377163 -0.602664
0003a0 f6 47 7e be e6 8f 07 be 1c ca 25 3d dc 9f 68 3d
       -0.24832138 -0.13238487 0.04047595 0.05679308
0003b0 f1 4e c3 3e c6 5f b4 be 1b 75 a3 3d 9d ec d4 be
       0.38146165 -0.3522932 0.079813205 -0.41586772
0003c0 7c df f5 3d 19 c8 03 3d cc c2 1e bf 84 a2 75 bd
       0.12005517 0.03217325 -0.62015986 -0.05996944
0003d0 76 75 a4 be 33 d7 b0 3e d7 59 ee bd b3 e7 2e bf
       -0.32120866 0.34539184 -0.11638229 -0.68322295
0003e0 86 12 e2 3e 56 eb dc be 6e fc cf 3d b8 3e 0b 3f
       0.44154757 -0.43148297 0.10155569 0.54392576
0003f0 6f 3b d3 3d 85 80 d6 be fc 2a d2 3c 3a 8b 54 be
       0.103140704 -0.41894928 0.025655262 -0.20756236

head.read_net.bias f4 [150]
000000 97 a4 1b 3d dc bb d9 bc 67 72 25 be 6a 88 ca be
       0.037998762 -0.026578836 -0.16156922 -0.395572
000010 2a c9 66 be a4 95 18 3e 25 68 d7 bd e6 f2 9f be
       -0.22537675 0.14900833 -0.10517911 -0.31240004
000020 95 f6 db 3e 2c 35 c9 3e fe 5a a7 bd b5 dc 13 be
       0.42961565 0.3929838 -0.08171652 -0.14439662
000030 c3 34 0b be 26 fb e1 3d 47 d7 50 3e f2 ec be bc
       -0.13594346 0.11034231 0.20394622 -0.023306344
000040 f7 2a a3 bd 60 9c b5 bc 62 72 aa 3e 1c ba 3d 3e
       -0.07967179 -0.022169292 0.33290392 0.18528026
000050 99 44 01 be c0 d0 9e 3e ab 6e 52 bb 46 57 07 bf
       -0.12623824 0.3101864 -0.003210942 -0.52867544
000060 22 32 54 bc 84 d9 04 3f 33 b5 47 bc d9 08 62 be
       -0.012951406 0.518944 -0.012189197 -0.22073688
000070 5f 49 b3 be ac 75 77 3e 34 a6 53 be 8d d6 9e 3e
       -0.35016915 0.24165982 -0.2066887 0.31023064
000080 f8 6e 5b 3e ca 7b 70 be b9 00 02 3f 84 3c 88 3d
       0.2142905 -0.23484722 0.5078235 0.066521674
000090 42 e8 0a bf eb 7e ca 3d e6 0a c1 be ea fb 17 3e
       -0.5426065 0.09887489 -0.37703627 0.14842191
0000a0 ee a1 55 3d 69 e0 23 bd e9 48 45 3d b9 ab 24 3e
       0.05215638 -0.040008936 0.048165236 0.16081132
0000b0 eb dc c2 bd a5 16 c5 3d fa b1 f4 3c 50 e6 be be
       -0.09514793 0.0962346 0.029870022 -0.3728509
0000c0 18 f8 98 3e 70 d6 3d 3e 1b c9 30 3d 05 3e c2 3e
       0.2987678 0.18538833 0.04316054 0.37937942
0000d0 5e 57 c5 be dc 24 b8 3e 47 cd d4 3d aa de 0b 3f
       -0.38543218 0.3596562 0.10390716 0.54636633
0000e0 3b 7d 81 3e 72 cc 44 be ce c7 58 3e f3 2b 9e 3e
       0.25290856 -0.19218615 0.2116997 0.30892906
0000f0 76 be ad bd e1 8f 93 3d 36 71 87 3e 81 ab 02 bf
       -0.08483593 0.07205177 0.2645356 -0.51042944
000100 a5 c5 0f 3e ff 69 69 3e 9c 48 58 be 88 23 fb 3e
       0.14040239 0.2279434 -0.21121448 0.49050546
000110 8b 1e 16 3e 51 54 14 3e e0 c9 68 3e da 74 f6 bd
       0.14660089 0.14485289 0.22733259 -0.120340064
000120 05 6a 8a be 54 50 3f 3e cc 9b b9 be 9c a9 3d 3b
       -0.2703401 0.18682986 -0.36251676 0.0028940206
000130 d6 b2 d0 bd 44 2a 3c 3e 15 27 45 be 76 15 72 3d
       -0.1019036 0.18375498 -0.1925319 0.059102498
000140 4b 5f 70 bd b1 16 f7 3e 19 f5 4f be 3d f9 18 be
       -0.05868463 0.482595 -0.20308341 -0.14938827
000150 17 c5 56 be 02 43 7b bd 7a 2d f1 3e e3 5f 5e be
       -0.20973621 -0.0613432 0.47105008 -0.21716265
000160 f9 44 8d be 4d 7c 55 be 74 23 bf bd 48 51 e4 ba
       -0.27591684 -0.20848198 -0.09332934 -0.0017419243
000170 dd bc 82 3e fd 67 92 3e 31 3e 1d 3e e8 86 1f bf
       0.25534716 0.28594962 0.15355755 -0.62315226
000180 3d 67 8c 3d d4 0b 8d bd b4 f9 d6 3e 87 3e 41 3d
       0.06855629 -0.06887022 0.41987383 0.04717877
000190 06 19 be 3d 62 64 e9 3d ec 83 43 3e 93 0a 80 be
       0.092821166 0.113960996 0.19093293 -0.25008067
0001a0 7c 1e db bd 48 aa e7 3d 69 b4 85 bd e3 fb cc 3e
       -0.10699174 0.113117754 -0.06528551 0.40035924
0001b0 3f 44 b4 bb 17 44 9d 3e 25 5b ff be 6e 8c b5 be
       -0.0055012996 0.3071601 -0.49874225 -0.35458702
0001c0 6b 16 4f 3e 37 36 6a be 27 af 4f 3c 86 45 87 3d
       0.20223396 -0.22872244 0.012676037 0.066050574
0001d0 86 5e 56 be d4 37 1d bf 86 b4 0b bb ef f9 18 3f
       -0.20934495 -0.6141331 -0.0021317317 0.5975637
0001e0 6b 9f 93 be db 84 ab 3e 14 38 8b bd 97 5d 34 bf
       -0.28832564 0.33499798 -0.067978054 -0.70455307
0001f0 66 3f 3c be ca 48 04 3f 9f 19 90 3c 54 a9 a1 3e
       -0.1838356 0.5167357 0.017590342 0.315745
000200 a0 24 b1 3c 76 b6 41 be 39 a2 51 bd 59 14 26 3d
       0.02162391 -0.1891726 -0.0511801 0.04054675
000210 0f d9 ab be 7c 10 1c 3c ed 13 14 bf 53 55 96 3e
       -0.3356404 0.009525415 -0.57842904 0.29361972
000220 5e f0 a1 3e 46 65 e8 3d 05 5f 40 be b5 26 f0 3e
       0.31628698 0.113474414 -0.18786247 0.4690453
000230 ba 9e 3f 3e f7 0b 17 3d 2c 76 df 3e 6d 49 23 bf
       0.18712893 0.036876645 0.43644845 -0.63783914
000240 8c 58 fe bd 5b 9a b4 3d 9d 94 59 3e a6 ed 8c 3d
       -0.12419233 0.088185035 0.21248098 0.06881265
000250 ef 2d 09 be a2 f1 20 bf
       -0.13396429 -0.628687

head.write_net.weight f4 [150, 5]
000000 ac a4 a5 3e 48 99 61 bd 25 39 c6 be d3 69 67 be
       0.32352197 -0.05507782 -0.38715473 -0.22598962
000010 a4 db 6b 3e c4 06 03 be 34 4f 6c 3e f0 0b ac be
       0.23033005 -0.1279555 0.23077089 -0.33602858
000020 5a bf 4e be 00 99 97 3c d8 8e 98 3d 90 fe a2 bd
       -0.20190182 0.018505573 0.0744912 -0.0795871
000030 ac b7 57 3e 22 4c 08 be dc 8c 5d 3e 38 31 0f be
       0.21066159 -0.13310292 0.21635765 -0.13983619
000040 84 cb af 3e 40 af 11 bd bc 6f 30 be c6 5a 99 3e
       0.34334958 -0.035567522 -0.17230123 0.29952067
000050 1e 3e 96 be d4 ff b8 3e 02 e3 d3 3e 76 f3 be 3e
       -0.29344267 0.3613268 0.4138413 0.3729512
000060 b5 7f a0 be 14 7e 62 3e b0 43 3f 3e 74 86 6b 3e
       -0.31347433 0.22118407 0.18678164 0.23000509
000070 48 24 72 bd 25 ff d3 be d0 25 d6 3d 5e df 3d be
       -0.05911663 -0.41405597 0.10456431 -0.18542239
000080 a2 83 d5 3e 8c ec 9e 3e 3a 7b 49 be 80 85 04 3b
       0.4170199 0.31039846 -0.19675913 0.0020221174
000090 80 ef d0 3c 48 a2 76 bd 18 ba ea 3d 68 29 ed bd
       0.025504827 -0.060213357 0.11461276 -0.11580163
0000a0 ee f9 df 3e c8 99 74 3e 44 c8 6f 3e 45 27 7b be
       0.4374537 0.23886788 0.23416239 -0.24526699
0000b0 50 6d 82 3d d4 3a 23 be 78 5e 81 3d 9c 30 e8 bd
       0.06368506 -0.1594041 0.063168466 -0.113373965
0000c0 a0 40 96 3e 60 ba 97 3d e6 78 d5 be 08 a2 76 3e
       0.2934618 0.07408595 -0.416938 0.24085248
0000d0 90 ca f3 3c b9 c3 73 be 2f b6 af be 04 2e d3 be
       0.029759675 -0.23805131 -0.34318683 -0.41246045
0000e0 28 01 a8 3e 1a 57 bb be 90 e3 1a bd 97 95 73 be
       0.32813382 -0.3658989 -0.037814677 -0.23787533
0000f0 48 5a dc 3d 64 b7 a9 bd 0c 22 e3 bd a8 2d b0 3e
       0.10759407 -0.08286932 -0.11090478 0.34409833
000100 54 89 86 be b4 61 93 bd 04 04 d2 3e 48 ef a6 3e
       -0.26276648 -0.0719637 0.4101869 0.32604432
000110 50 32 4e 3e 6a ea aa be 90 c2 aa 3d 30 35 3c be
       0.2013638 -0.3338197 0.08337891 -0.18379664
000120 54 01 c5 3e f2 e4 cc 3e 34 9d b3 3e f8 22 05 be
       0.38477576 0.4001842 0.35080874 -0.13001621
000130 c0 e1 a7 bd d8 33 88 3d 84 84 e1 be a0 5f a4 be
       -0.08197355 0.066505134 -0.44046414 -0.32104206
000140 e0 de e3 bd 35 f5 a1 be bc cd a9 3e 44 9a d1 be
       -0.111264944 -0.3163239 0.33164775 -0.40938008
000150 9c 45 3d 3e 70 77 8b bc 1c a2 47 3e c7 db c2 be
       0.18483585 -0.017024726 0.19495434 -0.38058302
000160 d8 93 41 3d e8 2f 8f 3e ba f4 6e be d8 bd 80 be
       0.047260135 0.27966237 -0.23335543 -0.2514484
000170 ba 12 18 be 0b ec e0 be 4b 06 9f be 44 6e 29 be
       -0.14850894 -0.43930086 -0.3105949 -0.16545969
000180 e0 da 3b 3c 72 5d bb 3e 38 6f e3 3e 40 17 34 bd
       0.011465758 0.3659473 0.4442079 -0.043967485
000190 be 01 2b be 61 af 57 be 94 80 d4 3e cc 92 5e be
       -0.16699883 -0.21062995 0.41504347 -0.21735686
0001a0 6f e3 cd be 59 58 b1 be 50 d9 bd 3e 3c ea 0b 3e
       -0.4021258 -0.34637716 0.3707986 0.13663572
0001b0 62 9a 9f 3e 44 33 98 3e b1 3d 68 be 78 f1 c8 bd
       0.31172472 0.29726613 -0.22679783 -0.098116815
0001c0 68 d0 8d be 54 44 6d be 56 b7 cc 3e 48 05 91 3d
       -0.27698064 -0.23170596 0.39983624 0.070810854
0001d0 e0 e8 2b be ba fe 96 3e b8 bb d7 3e 14 cc b0 bd
       -0.16788054 0.29491216 0.42135406 -0.08632675
0001e0 38 50 61 3e 3c f9 6b 3e 58 cc b1 3d e6 ec b5 3e
       0.22003257 0.23044294 0.086815536 0.35532302
0001f0 74 32 47 3e 6c 5d 6d 3e 2b 04 ae be ec 9c 0b 3e
       0.1945284 0.23180169 -0.33987555 0.1363408
000200 7c 6e 2b be 76 8a ad 3e 14 bb 84 be f4 15 6f 3e
       -0.16741365 0.338947 -0.2592398 0.23348218
000210 1e ea d7 be 78 f2 8e be e4 87 c6 3e 74 b3 4b be
       -0.42170805 -0.27919364 0.3877555 -0.19892675
000220 78 58 60 3e 74 1b a9 3e a7 bd 60 be d8 1a a7 be
       0.21908748 0.33028758 -0.21947347 -0.32637668
000230 00 cc 48 3e ac 58 ac be 9d 4c 6c be 81 38 d3 be
       0.1960907 -0.336614 -0.230761 -0.41254047
000240 bf 50 db be f4 81 05 be 90 fe d5 bc 88 af b4 3e
       -0.42835042 -0.13037854 -0.026122361 0.3529017
000250 18 04 85 3e 0e ca 9f 3e 98 59 17 bd 30 be 87 bc
       0.25979686 0.31208843 -0.036950678 -0.01657018
000260 0e 92 d9 3e f4 b5 ba be 3e f4 8b 3e c0 ea 9d bb
       0.42494243 -0.36466944 0.2733478 -0.004819244
000270 78 cf d3 be 28 6b 52 3d 2c cf 49 3e b4 54 38 3e
       -0.41369224 0.051371723 0.19707936 0.18001062
000280 70 3a a1 bd 74 2d 46 3e f8 11 aa bd 70 b0 6b 3d
       -0.07872474 0.19353276 -0.083042085 0.05754131
000290 42 8b 86 3e 00 5a b2 3e 0c 17 74 3e 60 cd c7 bc
       0.2627812 0.3483429 0.23836917 -0.024389923
0002a0 62 10 a2 be 18 e1 20 3e 00 78 ad b9 6e 71 b8 3e
       -0.31653124 0.15710866 -0.00033086538 0.3602404
0002b0 ba f9 a7 be 28 e3 e0 3e 74 b4 b3 3e 10 61 cb 3e
       -0.32807714 0.43923306 0.35098612 0.3972249
0002c0 3c 6a f3 bd 27 9d 81 be 3b 3d 77 be 54 7a 7f 3e
       -0.11885497 -0.2531521 -0.24144451 0.24949008
0002d0 37 f6 73 be 28 31 a4 be 9a 22 c5 be c8 2f d8 3e
       -0.23824392 -0.32068753 -0.3850296 0.42223954
0002e0 48 22 76 bd a0 eb 05 bd e5 28 ae be 2e d4 a1 3e
       -0.060091287 -0.032695413 -0.34015575 0.31607193
0002f0 ec 26 04 3e c0 0e 35 3c 89 39 56 be a4 15 45 3e
       0.12905473 0.01105088 -0.20920385 0.19246536
000300 49 3b a9 be fc e7 95 bd 20 b6 d4 bd 4e 40 dd 3e
       -0.33053043 -0.07319638 -0.103863 0.43213123
000310 1c cb 1b be c8 d0 bf be 2e 11 59 be fc 97 79 3e
       -0.15214199 -0.37463975 -0.2119796 0.24374384
000320 bc 72 b8 bd aa 54 ca 3e 56 e5 45 be 9e ae bd 3e
       -0.09006259 0.3951772 -0.19325766 0.37047285
000330 55 9d d8 be 4b 42 ac be b1 c2 a8 be 8c 28 e1 3e
       -0.42307535 -0.33644328 -0.32961038 0.43976247
000340 2e e7 d6 be bc 7d c3 3e e8 17 a8 be 28 d0 d6 be
       -0.4197325 0.38181865 -0.3283074 -0.41955686
000350 20 2c d1 bc ec 93 8a bd b8 f4 82 3d 40 bb 5e bc
       -0.025533736 -0.06766495 0.06394333 -0.013594449
000360 9e 36 31 be 7c 7f 85 3e b0 6b fc bd 22 c9 9a 3e
       -0.17305991 0.26073825 -0.12325227 0.30231577
000370 ba b7 95 be cc 10 2e 3e 60 55 15 bd 1e 93 8f 3e
       -0.29241735 0.16998595 -0.036458373 0.2804193
000380 06 78 a2 be c4 2a e7 bd 25 34 7d be c4 80 22 3e
       -0.31732196 -0.11287454 -0.24726923 0.15869433
000390 b0 8e 86 bd 40 e3 3d 3c 3c 75 44 3e 38 d6 82 3e
       -0.06570184 0.011589825 0.19185346 0.2555406
0003a0 08 3b fb 3d f0 d3 7c be ca 6a d0 3e a2 e8 9c 3e
       0.12267119 -0.24690223 0.40706474 0.30646235
0003b0 a8 44 3c 3d 34 db d7 3e 1e e7 d9 be 04 a1 3c be
       0.045963913 0.42159426 -0.4255914 -0.18420798
0003c0 14 bd 25 be 12 8a bf be 04 27 d8 3e 54 17 d3 be
       -0.16185409 -0.37410027 0.42217267 -0.41228735
0003d0 16 37 c8 3e 00 e4 19 3d 69 e0 ab be 28 28 c9 3e
       0.39104527 0.037570953 -0.3356965 0.3928845
0003e0 40 a8 a3 3b 9a 68 e4 3e 70 6f 20 3e 49 e3 b9 be
       0.004994422 0.44611055 0.1566751 -0.36306217
0003f0 80 c0 a0 3b 92 54 04 be 68 10 a5 3d d3 74 ae be
       0.0049057603 -0.12922886 0.0805977 -0.34073505

head.write_net.bias f4 [150]
000000 a1 3f 7c be 58 11 66 bd 1e dc b8 3e f4 4d c3 3e
       -0.24633648 -0.056168884 0.36105436 0.3814541
000010 68 5d 03 3e 18 c5 f9 bd f0 53 8e 3d 56 bd a2 3e
       0.128286 -0.12195796 0.069496036 0.31785077
000020 27 1f d2 be 57 51 8b be f8 fd 4b 3e 20 b6 50 3d
       -0.41039392 -0.27210495 0.199211 0.050954938
000030 e0 4d eb bc 1a 7d 99 be c5 08 de be 14 1a 11 be
       -0.028723657 -0.29978257 -0.43366066 -0.14170104
000040 48 03 d8 be 54 c7 db bd 66 d7 aa be 74 8a ae 3e
       -0.42190003 -0.10731378 -0.3336746 0.34090006
000050 60 5a c3 3d 10 86 9e bc 50 b8 e2 3d 76 15 da 3e
       0.09538722 -0.019351035 0.11070311 0.42594498
000060 18 b6 87 be c8 2c bc be 68 d7 e4 be 1c 7e 5b 3e
       -0.26506114 -0.36752915 -0.44695592 0.21434826
000070 cf c3 dc be a2 74 5b be 4c ef 8d 3e 38 dc 23 be
       -0.4311814 -0.2143121 0.27721632 -0.16001976
000080 39 35 c1 be 5a 9a 8f 3e 78 99 af be 7c 29 4a 3e
       -0.37735918 0.28047448 -0.34296775 0.19742388
000090 30 0c d7 3c 18 99 51 be 3c fc 9a bd 3d ae af be
       0.026250929 -0.20468557 -0.07567641 -0.3431262
0000a0 0a 39 b0 be 4c a1 06 3e 24 53 3f be d0 34 59 3e
       -0.34418517 0.13147467 -0.1868406 0.21211553
0000b0 28 5a c9 3e 00 ee b4 3d 18 f1 41 be 5a ce 87 3e
       0.39326596 0.088344574 -0.18939626 0.2652462
0000c0 d8 90 a8 bd 45 88 c8 be 58 d0 cf 3e f5 84 ad be
       -0.08230752 -0.39166465 0.4058864 -0.338905
0000d0 0c f1 70 3e 60 3e 1b 3d 0a 65 bf 3e 44 9a a7 be
       0.23529452 0.037901282 0.37381774 -0.32734883
0000e0 dc f0 c6 3e 30 3a 9d 3d 62 d7 a1 be 38 31 69 3e
       0.38855636 0.07677114 -0.31609637 0.22772682
0000f0 c8 49 b2 3d ac 0b 09 3e 56 6a 80 3e 16 38 82 3e
       0.08705479 0.13383359 0.25081128 0.25433415
000100 60 14 62 bc 4a b1 c7 3e 52 cd d9 be 01 ed cc be
       -0.013798803 0.39002448 -0.4253946 -0.4002457
000110 1c 79 85 3e e0 5f c1 be 51 80 61 be 06 e4 1a be
       0.26068962 -0.3776846 -0.22021605 -0.15126047
000120 54 b3 a4 be ef eb b0 be d0 48 2d 3e 00 8b 9c be
       -0.32168067 -0.34555003 0.16922307 -0.305748
000130 40 ef 0f bc b0 36 bc be c0 b4 95 be 32 df 4b be
       -0.008785069 -0.36760473 -0.29239464 -0.19909361
000140 d4 18 04 3e 2d e0 4c be 40 0e 39 3e 9c 43 77 3e
       0.12900096 -0.20007391 0.18071842 0.24146885
000150 58 1c 20 be ff bf 57 be 00 41 a3 bd 18 f4 b3 bd
       -0.15635812 -0.21069334 -0.07971382 -0.087867916
000160 0a 24 dc 3e 98 71 07 3e 08 31 07 3e 20 7d 6e 3d
       0.42996246 0.13226926 0.13202298 0.058224797
000170 a8 fb b0 3e 65 23 9e be a4 14 ac be 24 f5 b4 3e
       0.34566998 -0.3088638 -0.33609498 0.35343277
000180 a8 f4 ca bd 78 49 3e 3d 47 ad c1 be 8c 17 9f 3e
       -0.09909946 0.046456784 -0.37827513 0.31072652
000190 58 84 6d bd f2 f8 cb 3e 2c 3a aa 3e d0 fb d6 3d
       -0.05798754 0.39838368 0.33247507 0.10497248
0001a0 10 23 8b 3d 42 16 08 be e0 4a 49 3c 61 e3 55 be
       0.06793797 -0.1328974 0.012285918 -0.2088752
0001b0 ef ef bd be 84 64 20 3e 88 70 3a 3e c2 00 d2 3e
       -0.37097117 0.15663344 0.1820699 0.41016203
0001c0 08 66 83 3e 94 47 74 3e 80 cb bd 3b 68 2f 7a 3e
       0.2566378 0.2385543 0.0057920814 0.24432147
0001d0 70 7f ca 3c 4a e3 bb 3e 85 e7 5f be 7c 48 52 be
       0.02471897 0.36696845 -0.21865661 -0.20535463
0001e0 10 41 ac bc 3d fe be be 6c c3 b1 be a0 ae 08 3e
       -0.021027118 -0.37303343 -0.34719408 0.13347864
0001f0 e8 2f 88 3e 62 4b 08 be 36 c6 a1 3e 30 d1 b5 bd
       0.2659905 -0.13310006 0.31596535 -0.0887779
000200 20 ac 00 bd b8 be 2e bd 06 1f b6 be 26 2f b9 be
       -0.03141415 -0.042662352 -0.35570544 -0.36168784
000210 2c 6a d8 3e ac bb 22 3e 8c 3d 94 3e a8 c0 87 bd
       0.42268503 0.15891904 0.28953207 -0.06628543
000220 0e 72 27 be c8 07 c3 3e 32 24 db 3e b0 75 d5 bc
       -0.16352102 0.38091874 0.42801052 -0.026057094
000230 e0 30 d8 3d e4 d7 19 be 7a ac aa be 0c ab 67 3e
       0.10556197 -0.15023762 -0.33334714 0.22623843
000240 44 7e dd bd 58 64 1e 3e 29 4b e1 be 90 ef 39 bd
       -0.10815099 0.15467966 -0.44002655 -0.04539448
000250 62 60 08 be 64 5c 88 3e
       -0.13318017 0.26632988

out_net.weight f4 [1, 155]
000000 b2 39 31 3b 54 c2 0f bd 98 e7 0d bd 23 02 c4 ba
       0.0027042446 -0.035097435 -0.034644693 -0.001495425
000010 e7 65 11 ba 27 b1 b6 3c b6 2e 82 bd ed 4e 24 bb
       -0.00055464957 0.02230127 -0.06356566 -0.0025071457
000020 2b 33 80 3c 4c 13 91 3d bb 16 8b 3d 91 91 36 bd
       0.015649399 0.07083759 0.06791445 -0.044572417
000030 9e 52 07 3d 3f 40 0b bd 64 6b 17 bd a6 5d 9b bd
       0.033037774 -0.033996817 -0.03696765 -0.075862214
000040 f3 81 85 bd 61 4a 60 3d ab 84 11 3b 9c b7 85 3d
       -0.065189265 0.054758433 0.002220432 0.06529161
000050 6d 51 e5 3c 0e 97 96 3d b1 c0 f7 3c e8 b2 06 3d
       0.027992928 0.0735303 0.03024325 0.032885462
000060 16 dd 67 3d 60 e8 85 bc 2a 6e a1 bd 45 e7 79 3d
       0.05660733 -0.016346157 -0.0788234 0.06101157
000070 5f 4e ff 3c 14 8f 93 3d f2 27 90 3d 58 e2 7f 3d
       0.0311653 0.07205024 0.07038869 0.062471718
000080 46 41 81 bc de 10 94 3d 6a db 15 3d cb 56 45 bd
       -0.015778195 0.0722978 0.036586203 -0.048178475
000090 0a 6c 35 3d 4e c2 9c 3d 5a 74 8d 3d e1 80 4c bd
       0.044292487 0.07654248 0.06906958 -0.049927596
0000a0 14 20 97 3d 04 ba 86 3d ce 33 24 3d 6a c3 b0 bd
       0.07379165 0.065784484 0.040088467 -0.08631022
0000b0 d6 c6 14 3d 2a c2 97 3d e3 65 87 bd 31 b7 91 3d
       0.036322437 0.07410081 -0.0661123 0.07115019
0000c0 43 f3 50 3d d3 4c 34 3d d6 ad 82 bd bd 96 32 3d
       0.051013242 0.044018578 -0.06380813 0.043600786
0000d0 8a 69 0e 3d 35 7a 7d 3d 79 a5 c7 bc 72 2a 70 3d
       0.03476862 0.061884124 -0.024370896 0.05863423
0000e0 7a 2c b6 bc 3c 3f 74 bd 62 03 26 3d 3d e0 98 bd
       -0.022238005 -0.059630617 0.04053057 -0.07464645
0000f0 e2 f6 93 3c d6 ab 9e 3d fd 77 97 bd 91 06 97 3d
       0.018062059 0.07747619 -0.07395933 0.07374299
000100 3b 27 82 bd ee 33 a2 3d 96 f9 7f 3d 3d a2 e4 bc
       -0.06355139 0.07920061 0.062493883 -0.027909392
000110 64 4a 45 bd 64 4b 45 bd f8 83 88 bc 76 d7 6b bd
       -0.048166648 -0.0481676 -0.01666449 -0.057578526
000120 5a 2d 5d 3d be 14 14 3d 60 12 46 bd fb ed ca 3b
       0.05399833 0.036152594 -0.048357368 0.0061929203
000130 9f 10 66 3c 7b 31 42 3d a9 9d b2 3b b0 04 b8 3c
       0.014042049 0.04741047 0.0054509235 0.022463173
000140 96 a2 22 bc ee 65 a8 bc d2 3d 11 bd 12 60 26 3c
       -0.009926459 -0.020556416 -0.035459347 0.010154741
000150 34 fb 86 bd 72 b5 0d 3d 93 1a 3f bd 8a 4c db 3c
       -0.06590882 0.034596868 -0.046656203 0.026769895
000160 50 7d ac 3d c3 cc 87 3d af 3a 25 ba bd 34 74 bc
       0.08422339 0.06630852 -0.0006302995 -0.014905152
000170 21 84 df bc 04 ce 2a 3d bb 1b 92 bd fd 12 2e bd
       -0.027284684 0.041700378 -0.071341954 -0.042498577
000180 46 bd ca 3c e5 06 00 bd 21 0a 5f 3d 12 22 ce 3c
       0.024748456 -0.031256575 0.05445302 0.02516273
000190 15 0d 53 3d 3f e2 7f bd 98 be 83 bc 5a 53 d8 3c
       0.051526148 -0.062471624 -0.016082093 0.026406933
0001a0 61 59 e1 bc 9c 62 70 bd a3 f6 40 bd b7 84 9c 3d
       -0.02750844 -0.05868779 -0.04711021 0.07642501
0001b0 60 1d 7b 3c 79 24 04 3d 35 2e 2e 3d d2 84 82 3c
       0.015326828 0.032261346 0.042524535 0.015932474
0001c0 32 a9 03 bd c9 ce 6e bd 0f 17 69 3d 05 fe 93 3d
       -0.03214378 -0.058302674 0.056906756 0.07226185
0001d0 95 4b f0 bc 8c 4e 5e bb 20 97 06 bd 6f 5c d2 3b
       -0.029332915 -0.003392133 -0.032858968 0.0064197103
0001e0 fc ff 49 3d d3 b2 a7 3d 17 c4 7e 3d 4a 96 3b 3a
       0.04931639 0.08188405 0.062198725 0.00071558787
0001f0 66 39 4f 3c 91 7d 21 bc e1 b4 50 3b 3b b1 60 3b
       0.012647962 -0.0098565975 0.0031846093 0.0034285325
000200 37 47 32 3d 2c dd 17 3d 77 53 a2 bd 2d 48 65 bc
       0.043524947 0.03707616 -0.07926076 -0.013994259
000210 6f 9d 4b 3d 77 0e 6f 3c 89 c6 e8 3c f9 7f 25 bd
       0.049710687 0.014590851 0.028414981 -0.040405247
000220 35 a1 b2 bc 58 9d 52 3d 19 a7 9f b9 3a 51 7b 3d
       -0.021805385 0.051419586 -0.0003045134 0.06135676
000230 76 d9 79 bc e7 6d 14 bd dd c8 b6 bc bd 61 52 bd
       -0.015249601 -0.036237624 -0.022312576 -0.05136274
000240 33 81 c1 bc f2 05 8a bc dc 83 57 bc 89 da 15 3d
       -0.023621177 -0.016848538 -0.013153996 0.036585364
000250 fc 5a 87 bd 19 d2 a2 bc f5 eb 26 3d 3f 40 23 bc
       -0.06609151 -0.019875573 0.04075237 -0.009964048
000260 04 f8 37 3d 64 55 35 3d 75 e6 8f 3d
       0.04491426 0.044270888 0.07026378
